…
The value is the same before and after calling `init_weights` of EncoderDecoder  

decode_head.scale_heads.3.4.conv.weight - torch.Size([128, 128, 3, 3]): 
The value is the same before and after calling `init_weights` of EncoderDecoder  

decode_head.scale_heads.3.4.bn.weight - torch.Size([128]): 
The value is the same before and after calling `init_weights` of EncoderDecoder  

decode_head.scale_heads.3.4.bn.bias - torch.Size([128]): 
The value is the same before and after calling `init_weights` of EncoderDecoder  
2024-01-05 09:44:11,230 - mmseg - INFO - EncoderDecoder(
  (backbone): debi_small(
    (downsample_layers): ModuleList(
      (0): Sequential(
        (0): Conv2d(3, 32, kernel_size=(3, 3), stride=(2, 2), padding=(1, 1))
        (1): BatchNorm2d(32, eps=1e-05, momentum=0.1, affine=True, track_running_stats=True)
        (2): GELU()
        (3): Conv2d(32, 64, kernel_size=(3, 3), stride=(2, 2), padding=(1, 1))
        (4): BatchNorm2d(64, eps=1e-05, momentum=0.1, affine=True, track_running_stats=True)
      )
      (1): Sequential(
        (0): Conv2d(64, 128, kernel_size=(3, 3), stride=(2, 2), padding=(1, 1))
        (1): BatchNorm2d(128, eps=1e-05, momentum=0.1, affine=True, track_running_stats=True)
      )
      (2): Sequential(
        (0): Conv2d(128, 256, kernel_size=(3, 3), stride=(2, 2), padding=(1, 1))
        (1): BatchNorm2d(256, eps=1e-05, momentum=0.1, affine=True, track_running_stats=True)
      )
      (3): Sequential(
        (0): Conv2d(256, 512, kernel_size=(3, 3), stride=(2, 2), padding=(1, 1))
        (1): BatchNorm2d(512, eps=1e-05, momentum=0.1, affine=True, track_running_stats=True)
      )
    )
    (stages): ModuleList(
      (0): Sequential(
        (0): Block(
          (pos_embed1): Conv2d(64, 64, kernel_size=(3, 3), stride=(1, 1), padding=(1, 1), groups=64)
          (pos_embed2): Conv2d(64, 64, kernel_size=(3, 3), stride=(1, 1), padding=(1, 1), groups=64)
          (norm1): LayerNorm((64,), eps=1e-06, elementwise_affine=True)
          (attn1): BiLevelRoutingAttention(
            (lepe): Conv2d(64, 64, kernel_size=(5, 5), stride=(1, 1), padding=(2, 2), groups=64)
            (router): TopkRouting(
              (emb): Identity()
              (routing_act): Softmax(dim=-1)
            )
            (kv_gather): KVGather()
            (qkv): QKVLinear(
              (qkv): Linear(in_features=64, out_features=192, bias=True)
            )
            (wo): Linear(in_features=64, out_features=64, bias=True)
            (kv_down): Identity()
            (attn_act): Softmax(dim=-1)
          )
          (attn2): DeBiLevelRoutingAttention(
            (lepe1): Conv2d(64, 64, kernel_size=(5, 5), stride=(8, 8), padding=(2, 2), groups=64)
            (router): TopkRouting(
              (emb): Identity()
              (routing_act): Softmax(dim=-1)
            )
            (kv_gather): KVGather()
            (qkv_conv): QKVConv(
              (qkv): Conv2d(64, 192, kernel_size=(1, 1), stride=(1, 1))
            )
            (kv_down): Identity()
            (attn_act): Softmax(dim=-1)
            (proj_q): Conv2d(64, 64, kernel_size=(1, 1), stride=(1, 1))
            (proj_k): Conv2d(64, 64, kernel_size=(1, 1), stride=(1, 1))
            (proj_v): Conv2d(64, 64, kernel_size=(1, 1), stride=(1, 1))
            (proj_out): Conv2d(64, 64, kernel_size=(1, 1), stride=(1, 1))
            (unifyheads1): Conv2d(64, 64, kernel_size=(1, 1), stride=(1, 1))
            (conv_offset_q): Sequential(
              (0): Conv2d(64, 64, kernel_size=(9, 9), stride=(8, 8), padding=(4, 4), groups=64, bias=False)
              (1): LayerNormProxy(
                (norm): LayerNorm((64,), eps=1e-05, elementwise_affine=True)
              )
              (2): GELU()
              (3): Conv2d(64, 1, kernel_size=(1, 1), stride=(1, 1), bias=False)
            )
            (norm): LayerNorm((64,), eps=1e-06, elementwise_affine=True)
            (norm2): LayerNorm((64,), eps=1e-06, elementwise_affine=True)
            (mlp): TransformerMLPWithConv(
              (linear1): Sequential(
                (0): Conv2d(64, 192, kernel_size=(1, 1), stride=(1, 1))
              )
              (drop1): Dropout(p=0.0, inplace=True)
              (act): GELU()
              (linear2): Sequential(
                (0): Conv2d(192, 64, kernel_size=(1, 1), stride=(1, 1))
              )
              (drop2): Dropout(p=0.0, inplace=True)
              (dwc): Conv2d(192, 192, kernel_size=(3, 3), stride=(1, 1), padding=(1, 1), groups=192)
            )
          )
          (norm2): LayerNorm((64,), eps=1e-06, elementwise_affine=True)
          (mlp1): TransformerMLPWithConv(
            (linear1): Sequential(
              (0): Conv2d(64, 192, kernel_size=(1, 1), stride=(1, 1))
            )
            (drop1): Dropout(p=0.0, inplace=True)
            (act): GELU()
            (linear2): Sequential(
              (0): Conv2d(192, 64, kernel_size=(1, 1), stride=(1, 1))
            )
            (drop2): Dropout(p=0.0, inplace=True)
            (dwc): Conv2d(192, 192, kernel_size=(3, 3), stride=(1, 1), padding=(1, 1), groups=192)
          )
          (drop_path1): Identity()
          (drop_path2): Identity()
          (norm3): LayerNorm((64,), eps=1e-06, elementwise_affine=True)
          (norm4): LayerNorm((64,), eps=1e-06, elementwise_affine=True)
          (mlp2): TransformerMLPWithConv(
            (linear1): Sequential(
              (0): Conv2d(64, 192, kernel_size=(1, 1), stride=(1, 1))
            )
            (drop1): Dropout(p=0.0, inplace=True)
            (act): GELU()
            (linear2): Sequential(
              (0): Conv2d(192, 64, kernel_size=(1, 1), stride=(1, 1))
            )
            (drop2): Dropout(p=0.0, inplace=True)
            (dwc): Conv2d(192, 192, kernel_size=(3, 3), stride=(1, 1), padding=(1, 1), groups=192)
          )
        )
        (1): Block(
          (pos_embed1): Conv2d(64, 64, kernel_size=(3, 3), stride=(1, 1), padding=(1, 1), groups=64)
          (pos_embed2): Conv2d(64, 64, kernel_size=(3, 3), stride=(1, 1), padding=(1, 1), groups=64)
          (norm1): LayerNorm((64,), eps=1e-06, elementwise_affine=True)
          (attn1): BiLevelRoutingAttention(
            (lepe): Conv2d(64, 64, kernel_size=(5, 5), stride=(1, 1), padding=(2, 2), groups=64)
            (router): TopkRouting(
              (emb): Identity()
              (routing_act): Softmax(dim=-1)
            )
            (kv_gather): KVGather()
            (qkv): QKVLinear(
              (qkv): Linear(in_features=64, out_features=192, bias=True)
            )
            (wo): Linear(in_features=64, out_features=64, bias=True)
            (kv_down): Identity()
            (attn_act): Softmax(dim=-1)
          )
          (attn2): DeBiLevelRoutingAttention(
            (lepe1): Conv2d(64, 64, kernel_size=(5, 5), stride=(8, 8), padding=(2, 2), groups=64)
            (router): TopkRouting(
              (emb): Identity()
              (routing_act): Softmax(dim=-1)
            )
            (kv_gather): KVGather()
            (qkv_conv): QKVConv(
              (qkv): Conv2d(64, 192, kernel_size=(1, 1), stride=(1, 1))
            )
            (kv_down): Identity()
            (attn_act): Softmax(dim=-1)
            (proj_q): Conv2d(64, 64, kernel_size=(1, 1), stride=(1, 1))
            (proj_k): Conv2d(64, 64, kernel_size=(1, 1), stride=(1, 1))
            (proj_v): Conv2d(64, 64, kernel_size=(1, 1), stride=(1, 1))
            (proj_out): Conv2d(64, 64, kernel_size=(1, 1), stride=(1, 1))
            (unifyheads1): Conv2d(64, 64, kernel_size=(1, 1), stride=(1, 1))
            (conv_offset_q): Sequential(
              (0): Conv2d(64, 64, kernel_size=(9, 9), stride=(8, 8), padding=(4, 4), groups=64, bias=False)
              (1): LayerNormProxy(
                (norm): LayerNorm((64,), eps=1e-05, elementwise_affine=True)
              )
              (2): GELU()
              (3): Conv2d(64, 1, kernel_size=(1, 1), stride=(1, 1), bias=False)
            )
            (norm): LayerNorm((64,), eps=1e-06, elementwise_affine=True)
            (norm2): LayerNorm((64,), eps=1e-06, elementwise_affine=True)
            (mlp): TransformerMLPWithConv(
              (linear1): Sequential(
                (0): Conv2d(64, 192, kernel_size=(1, 1), stride=(1, 1))
              )
              (drop1): Dropout(p=0.0, inplace=True)
              (act): GELU()
              (linear2): Sequential(
                (0): Conv2d(192, 64, kernel_size=(1, 1), stride=(1, 1))
              )
              (drop2): Dropout(p=0.0, inplace=True)
              (dwc): Conv2d(192, 192, kernel_size=(3, 3), stride=(1, 1), padding=(1, 1), groups=192)
            )
          )
          (norm2): LayerNorm((64,), eps=1e-06, elementwise_affine=True)
          (mlp1): TransformerMLPWithConv(
            (linear1): Sequential(
              (0): Conv2d(64, 192, kernel_size=(1, 1), stride=(1, 1))
            )
            (drop1): Dropout(p=0.0, inplace=True)
            (act): GELU()
            (linear2): Sequential(
              (0): Conv2d(192, 64, kernel_size=(1, 1), stride=(1, 1))
            )
            (drop2): Dropout(p=0.0, inplace=True)
            (dwc): Conv2d(192, 192, kernel_size=(3, 3), stride=(1, 1), padding=(1, 1), groups=192)
          )
          (drop_path1): DropPath()
          (drop_path2): DropPath()
          (norm3): LayerNorm((64,), eps=1e-06, elementwise_affine=True)
          (norm4): LayerNorm((64,), eps=1e-06, elementwise_affine=True)
          (mlp2): TransformerMLPWithConv(
            (linear1): Sequential(
              (0): Conv2d(64, 192, kernel_size=(1, 1), stride=(1, 1))
            )
            (drop1): Dropout(p=0.0, inplace=True)
            (act): GELU()
            (linear2): Sequential(
              (0): Conv2d(192, 64, kernel_size=(1, 1), stride=(1, 1))
            )
            (drop2): Dropout(p=0.0, inplace=True)
            (dwc): Conv2d(192, 192, kernel_size=(3, 3), stride=(1, 1), padding=(1, 1), groups=192)
          )
        )
      )
      (1): Sequential(
        (0): Block(
          (pos_embed1): Conv2d(128, 128, kernel_size=(3, 3), stride=(1, 1), padding=(1, 1), groups=128)
          (pos_embed2): Conv2d(128, 128, kernel_size=(3, 3), stride=(1, 1), padding=(1, 1), groups=128)
          (norm1): LayerNorm((128,), eps=1e-06, elementwise_affine=True)
          (attn1): BiLevelRoutingAttention(
            (lepe): Conv2d(128, 128, kernel_size=(5, 5), stride=(1, 1), padding=(2, 2), groups=128)
            (router): TopkRouting(
              (emb): Identity()
              (routing_act): Softmax(dim=-1)
            )
            (kv_gather): KVGather()
            (qkv): QKVLinear(
              (qkv): Linear(in_features=128, out_features=384, bias=True)
            )
            (wo): Linear(in_features=128, out_features=128, bias=True)
            (kv_down): Identity()
            (attn_act): Softmax(dim=-1)
          )
          (attn2): DeBiLevelRoutingAttention(
            (lepe1): Conv2d(128, 128, kernel_size=(5, 5), stride=(4, 4), padding=(2, 2), groups=128)
            (router): TopkRouting(
              (emb): Identity()
              (routing_act): Softmax(dim=-1)
            )
            (kv_gather): KVGather()
            (qkv_conv): QKVConv(
              (qkv): Conv2d(128, 384, kernel_size=(1, 1), stride=(1, 1))
            )
            (kv_down): Identity()
            (attn_act): Softmax(dim=-1)
            (proj_q): Conv2d(128, 128, kernel_size=(1, 1), stride=(1, 1))
            (proj_k): Conv2d(128, 128, kernel_size=(1, 1), stride=(1, 1))
            (proj_v): Conv2d(128, 128, kernel_size=(1, 1), stride=(1, 1))
            (proj_out): Conv2d(128, 128, kernel_size=(1, 1), stride=(1, 1))
            (unifyheads1): Conv2d(128, 128, kernel_size=(1, 1), stride=(1, 1))
            (conv_offset_q): Sequential(
              (0): Conv2d(64, 64, kernel_size=(7, 7), stride=(4, 4), padding=(3, 3), groups=64, bias=False)
              (1): LayerNormProxy(
                (norm): LayerNorm((64,), eps=1e-05, elementwise_affine=True)
              )
              (2): GELU()
              (3): Conv2d(64, 1, kernel_size=(1, 1), stride=(1, 1), bias=False)
            )
            (norm): LayerNorm((128,), eps=1e-06, elementwise_affine=True)
            (norm2): LayerNorm((128,), eps=1e-06, elementwise_affine=True)
            (mlp): TransformerMLPWithConv(
              (linear1): Sequential(
                (0): Conv2d(128, 384, kernel_size=(1, 1), stride=(1, 1))
              )
              (drop1): Dropout(p=0.0, inplace=True)
              (act): GELU()
              (linear2): Sequential(
                (0): Conv2d(384, 128, kernel_size=(1, 1), stride=(1, 1))
              )
              (drop2): Dropout(p=0.0, inplace=True)
              (dwc): Conv2d(384, 384, kernel_size=(3, 3), stride=(1, 1), padding=(1, 1), groups=384)
            )
          )
          (norm2): LayerNorm((128,), eps=1e-06, elementwise_affine=True)
          (mlp1): TransformerMLPWithConv(
            (linear1): Sequential(
              (0): Conv2d(128, 384, kernel_size=(1, 1), stride=(1, 1))
            )
            (drop1): Dropout(p=0.0, inplace=True)
            (act): GELU()
            (linear2): Sequential(
              (0): Conv2d(384, 128, kernel_size=(1, 1), stride=(1, 1))
            )
            (drop2): Dropout(p=0.0, inplace=True)
            (dwc): Conv2d(384, 384, kernel_size=(3, 3), stride=(1, 1), padding=(1, 1), groups=384)
          )
          (drop_path1): DropPath()
          (drop_path2): DropPath()
          (norm3): LayerNorm((128,), eps=1e-06, elementwise_affine=True)
          (norm4): LayerNorm((128,), eps=1e-06, elementwise_affine=True)
          (mlp2): TransformerMLPWithConv(
            (linear1): Sequential(
              (0): Conv2d(128, 384, kernel_size=(1, 1), stride=(1, 1))
            )
            (drop1): Dropout(p=0.0, inplace=True)
            (act): GELU()
            (linear2): Sequential(
              (0): Conv2d(384, 128, kernel_size=(1, 1), stride=(1, 1))
            )
            (drop2): Dropout(p=0.0, inplace=True)
            (dwc): Conv2d(384, 384, kernel_size=(3, 3), stride=(1, 1), padding=(1, 1), groups=384)
          )
        )
        (1): Block(
          (pos_embed1): Conv2d(128, 128, kernel_size=(3, 3), stride=(1, 1), padding=(1, 1), groups=128)
          (pos_embed2): Conv2d(128, 128, kernel_size=(3, 3), stride=(1, 1), padding=(1, 1), groups=128)
          (norm1): LayerNorm((128,), eps=1e-06, elementwise_affine=True)
          (attn1): BiLevelRoutingAttention(
            (lepe): Conv2d(128, 128, kernel_size=(5, 5), stride=(1, 1), padding=(2, 2), groups=128)
            (router): TopkRouting(
              (emb): Identity()
              (routing_act): Softmax(dim=-1)
            )
            (kv_gather): KVGather()
            (qkv): QKVLinear(
              (qkv): Linear(in_features=128, out_features=384, bias=True)
            )
            (wo): Linear(in_features=128, out_features=128, bias=True)
            (kv_down): Identity()
            (attn_act): Softmax(dim=-1)
          )
          (attn2): DeBiLevelRoutingAttention(
            (lepe1): Conv2d(128, 128, kernel_size=(5, 5), stride=(4, 4), padding=(2, 2), groups=128)
            (router): TopkRouting(
              (emb): Identity()
              (routing_act): Softmax(dim=-1)
            )
            (kv_gather): KVGather()
            (qkv_conv): QKVConv(
              (qkv): Conv2d(128, 384, kernel_size=(1, 1), stride=(1, 1))
            )
            (kv_down): Identity()
            (attn_act): Softmax(dim=-1)
            (proj_q): Conv2d(128, 128, kernel_size=(1, 1), stride=(1, 1))
            (proj_k): Conv2d(128, 128, kernel_size=(1, 1), stride=(1, 1))
            (proj_v): Conv2d(128, 128, kernel_size=(1, 1), stride=(1, 1))
            (proj_out): Conv2d(128, 128, kernel_size=(1, 1), stride=(1, 1))
            (unifyheads1): Conv2d(128, 128, kernel_size=(1, 1), stride=(1, 1))
            (conv_offset_q): Sequential(
              (0): Conv2d(64, 64, kernel_size=(7, 7), stride=(4, 4), padding=(3, 3), groups=64, bias=False)
              (1): LayerNormProxy(
                (norm): LayerNorm((64,), eps=1e-05, elementwise_affine=True)
              )
              (2): GELU()
              (3): Conv2d(64, 1, kernel_size=(1, 1), stride=(1, 1), bias=False)
            )
            (norm): LayerNorm((128,), eps=1e-06, elementwise_affine=True)
            (norm2): LayerNorm((128,), eps=1e-06, elementwise_affine=True)
            (mlp): TransformerMLPWithConv(
              (linear1): Sequential(
                (0): Conv2d(128, 384, kernel_size=(1, 1), stride=(1, 1))
              )
              (drop1): Dropout(p=0.0, inplace=True)
              (act): GELU()
              (linear2): Sequential(
                (0): Conv2d(384, 128, kernel_size=(1, 1), stride=(1, 1))
              )
              (drop2): Dropout(p=0.0, inplace=True)
              (dwc): Conv2d(384, 384, kernel_size=(3, 3), stride=(1, 1), padding=(1, 1), groups=384)
            )
          )
          (norm2): LayerNorm((128,), eps=1e-06, elementwise_affine=True)
          (mlp1): TransformerMLPWithConv(
            (linear1): Sequential(
              (0): Conv2d(128, 384, kernel_size=(1, 1), stride=(1, 1))
            )
            (drop1): Dropout(p=0.0, inplace=True)
            (act): GELU()
            (linear2): Sequential(
              (0): Conv2d(384, 128, kernel_size=(1, 1), stride=(1, 1))
            )
            (drop2): Dropout(p=0.0, inplace=True)
            (dwc): Conv2d(384, 384, kernel_size=(3, 3), stride=(1, 1), padding=(1, 1), groups=384)
          )
          (drop_path1): DropPath()
          (drop_path2): DropPath()
          (norm3): LayerNorm((128,), eps=1e-06, elementwise_affine=True)
          (norm4): LayerNorm((128,), eps=1e-06, elementwise_affine=True)
          (mlp2): TransformerMLPWithConv(
            (linear1): Sequential(
              (0): Conv2d(128, 384, kernel_size=(1, 1), stride=(1, 1))
            )
            (drop1): Dropout(p=0.0, inplace=True)
            (act): GELU()
            (linear2): Sequential(
              (0): Conv2d(384, 128, kernel_size=(1, 1), stride=(1, 1))
            )
            (drop2): Dropout(p=0.0, inplace=True)
            (dwc): Conv2d(384, 384, kernel_size=(3, 3), stride=(1, 1), padding=(1, 1), groups=384)
          )
        )
      )
      (2): Sequential(
        (0): Block(
          (pos_embed1): Conv2d(256, 256, kernel_size=(3, 3), stride=(1, 1), padding=(1, 1), groups=256)
          (pos_embed2): Conv2d(256, 256, kernel_size=(3, 3), stride=(1, 1), padding=(1, 1), groups=256)
          (norm1): LayerNorm((256,), eps=1e-06, elementwise_affine=True)
          (attn1): BiLevelRoutingAttention(
            (lepe): Conv2d(256, 256, kernel_size=(5, 5), stride=(1, 1), padding=(2, 2), groups=256)
            (router): TopkRouting(
              (emb): Identity()
              (routing_act): Softmax(dim=-1)
            )
            (kv_gather): KVGather()
            (qkv): QKVLinear(
              (qkv): Linear(in_features=256, out_features=768, bias=True)
            )
            (wo): Linear(in_features=256, out_features=256, bias=True)
            (kv_down): Identity()
            (attn_act): Softmax(dim=-1)
          )
          (attn2): DeBiLevelRoutingAttention(
            (lepe1): Conv2d(256, 256, kernel_size=(5, 5), stride=(2, 2), padding=(2, 2), groups=256)
            (router): TopkRouting(
              (emb): Identity()
              (routing_act): Softmax(dim=-1)
            )
            (kv_gather): KVGather()
            (qkv_conv): QKVConv(
              (qkv): Conv2d(256, 768, kernel_size=(1, 1), stride=(1, 1))
            )
            (kv_down): Identity()
            (attn_act): Softmax(dim=-1)
            (proj_q): Conv2d(256, 256, kernel_size=(1, 1), stride=(1, 1))
            (proj_k): Conv2d(256, 256, kernel_size=(1, 1), stride=(1, 1))
            (proj_v): Conv2d(256, 256, kernel_size=(1, 1), stride=(1, 1))
            (proj_out): Conv2d(256, 256, kernel_size=(1, 1), stride=(1, 1))
            (unifyheads1): Conv2d(256, 256, kernel_size=(1, 1), stride=(1, 1))
            (conv_offset_q): Sequential(
              (0): Conv2d(64, 64, kernel_size=(5, 5), stride=(2, 2), padding=(2, 2), groups=64, bias=False)
              (1): LayerNormProxy(
                (norm): LayerNorm((64,), eps=1e-05, elementwise_affine=True)
              )
              (2): GELU()
              (3): Conv2d(64, 1, kernel_size=(1, 1), stride=(1, 1), bias=False)
            )
            (norm): LayerNorm((256,), eps=1e-06, elementwise_affine=True)
            (norm2): LayerNorm((256,), eps=1e-06, elementwise_affine=True)
            (mlp): TransformerMLPWithConv(
              (linear1): Sequential(
                (0): Conv2d(256, 768, kernel_size=(1, 1), stride=(1, 1))
              )
              (drop1): Dropout(p=0.0, inplace=True)
              (act): GELU()
              (linear2): Sequential(
                (0): Conv2d(768, 256, kernel_size=(1, 1), stride=(1, 1))
              )
              (drop2): Dropout(p=0.0, inplace=True)
              (dwc): Conv2d(768, 768, kernel_size=(3, 3), stride=(1, 1), padding=(1, 1), groups=768)
            )
          )
          (norm2): LayerNorm((256,), eps=1e-06, elementwise_affine=True)
          (mlp1): TransformerMLPWithConv(
            (linear1): Sequential(
              (0): Conv2d(256, 768, kernel_size=(1, 1), stride=(1, 1))
            )
            (drop1): Dropout(p=0.0, inplace=True)
            (act): GELU()
            (linear2): Sequential(
              (0): Conv2d(768, 256, kernel_size=(1, 1), stride=(1, 1))
            )
            (drop2): Dropout(p=0.0, inplace=True)
            (dwc): Conv2d(768, 768, kernel_size=(3, 3), stride=(1, 1), padding=(1, 1), groups=768)
          )
          (drop_path1): DropPath()
          (drop_path2): DropPath()
          (norm3): LayerNorm((256,), eps=1e-06, elementwise_affine=True)
          (norm4): LayerNorm((256,), eps=1e-06, elementwise_affine=True)
          (mlp2): TransformerMLPWithConv(
            (linear1): Sequential(
              (0): Conv2d(256, 768, kernel_size=(1, 1), stride=(1, 1))
            )
            (drop1): Dropout(p=0.0, inplace=True)
            (act): GELU()
            (linear2): Sequential(
              (0): Conv2d(768, 256, kernel_size=(1, 1), stride=(1, 1))
            )
            (drop2): Dropout(p=0.0, inplace=True)
            (dwc): Conv2d(768, 768, kernel_size=(3, 3), stride=(1, 1), padding=(1, 1), groups=768)
          )
        )
        (1): Block(
          (pos_embed1): Conv2d(256, 256, kernel_size=(3, 3), stride=(1, 1), padding=(1, 1), groups=256)
          (pos_embed2): Conv2d(256, 256, kernel_size=(3, 3), stride=(1, 1), padding=(1, 1), groups=256)
          (norm1): LayerNorm((256,), eps=1e-06, elementwise_affine=True)
          (attn1): BiLevelRoutingAttention(
            (lepe): Conv2d(256, 256, kernel_size=(5, 5), stride=(1, 1), padding=(2, 2), groups=256)
            (router): TopkRouting(
              (emb): Identity()
              (routing_act): Softmax(dim=-1)
            )
            (kv_gather): KVGather()
            (qkv): QKVLinear(
              (qkv): Linear(in_features=256, out_features=768, bias=True)
            )
            (wo): Linear(in_features=256, out_features=256, bias=True)
            (kv_down): Identity()
            (attn_act): Softmax(dim=-1)
          )
          (attn2): DeBiLevelRoutingAttention(
            (lepe1): Conv2d(256, 256, kernel_size=(5, 5), stride=(2, 2), padding=(2, 2), groups=256)
            (router): TopkRouting(
              (emb): Identity()
              (routing_act): Softmax(dim=-1)
            )
            (kv_gather): KVGather()
            (qkv_conv): QKVConv(
              (qkv): Conv2d(256, 768, kernel_size=(1, 1), stride=(1, 1))
            )
            (kv_down): Identity()
            (attn_act): Softmax(dim=-1)
            (proj_q): Conv2d(256, 256, kernel_size=(1, 1), stride=(1, 1))
            (proj_k): Conv2d(256, 256, kernel_size=(1, 1), stride=(1, 1))
            (proj_v): Conv2d(256, 256, kernel_size=(1, 1), stride=(1, 1))
            (proj_out): Conv2d(256, 256, kernel_size=(1, 1), stride=(1, 1))
            (unifyheads1): Conv2d(256, 256, kernel_size=(1, 1), stride=(1, 1))
            (conv_offset_q): Sequential(
              (0): Conv2d(64, 64, kernel_size=(5, 5), stride=(2, 2), padding=(2, 2), groups=64, bias=False)
              (1): LayerNormProxy(
                (norm): LayerNorm((64,), eps=1e-05, elementwise_affine=True)
              )
              (2): GELU()
              (3): Conv2d(64, 1, kernel_size=(1, 1), stride=(1, 1), bias=False)
            )
            (norm): LayerNorm((256,), eps=1e-06, elementwise_affine=True)
            (norm2): LayerNorm((256,), eps=1e-06, elementwise_affine=True)
            (mlp): TransformerMLPWithConv(
              (linear1): Sequential(
                (0): Conv2d(256, 768, kernel_size=(1, 1), stride=(1, 1))
              )
              (drop1): Dropout(p=0.0, inplace=True)
              (act): GELU()
              (linear2): Sequential(
                (0): Conv2d(768, 256, kernel_size=(1, 1), stride=(1, 1))
              )
              (drop2): Dropout(p=0.0, inplace=True)
              (dwc): Conv2d(768, 768, kernel_size=(3, 3), stride=(1, 1), padding=(1, 1), groups=768)
            )
          )
          (norm2): LayerNorm((256,), eps=1e-06, elementwise_affine=True)
          (mlp1): TransformerMLPWithConv(
            (linear1): Sequential(
              (0): Conv2d(256, 768, kernel_size=(1, 1), stride=(1, 1))
            )
            (drop1): Dropout(p=0.0, inplace=True)
            (act): GELU()
            (linear2): Sequential(
              (0): Conv2d(768, 256, kernel_size=(1, 1), stride=(1, 1))
            )
            (drop2): Dropout(p=0.0, inplace=True)
            (dwc): Conv2d(768, 768, kernel_size=(3, 3), stride=(1, 1), padding=(1, 1), groups=768)
          )
          (drop_path1): DropPath()
          (drop_path2): DropPath()
          (norm3): LayerNorm((256,), eps=1e-06, elementwise_affine=True)
          (norm4): LayerNorm((256,), eps=1e-06, elementwise_affine=True)
          (mlp2): TransformerMLPWithConv(
            (linear1): Sequential(
              (0): Conv2d(256, 768, kernel_size=(1, 1), stride=(1, 1))
            )
            (drop1): Dropout(p=0.0, inplace=True)
            (act): GELU()
            (linear2): Sequential(
              (0): Conv2d(768, 256, kernel_size=(1, 1), stride=(1, 1))
            )
            (drop2): Dropout(p=0.0, inplace=True)
            (dwc): Conv2d(768, 768, kernel_size=(3, 3), stride=(1, 1), padding=(1, 1), groups=768)
          )
        )
        (2): Block(
          (pos_embed1): Conv2d(256, 256, kernel_size=(3, 3), stride=(1, 1), padding=(1, 1), groups=256)
          (pos_embed2): Conv2d(256, 256, kernel_size=(3, 3), stride=(1, 1), padding=(1, 1), groups=256)
          (norm1): LayerNorm((256,), eps=1e-06, elementwise_affine=True)
          (attn1): BiLevelRoutingAttention(
            (lepe): Conv2d(256, 256, kernel_size=(5, 5), stride=(1, 1), padding=(2, 2), groups=256)
            (router): TopkRouting(
              (emb): Identity()
              (routing_act): Softmax(dim=-1)
            )
            (kv_gather): KVGather()
            (qkv): QKVLinear(
              (qkv): Linear(in_features=256, out_features=768, bias=True)
            )
            (wo): Linear(in_features=256, out_features=256, bias=True)
            (kv_down): Identity()
            (attn_act): Softmax(dim=-1)
          )
          (attn2): DeBiLevelRoutingAttention(
            (lepe1): Conv2d(256, 256, kernel_size=(5, 5), stride=(2, 2), padding=(2, 2), groups=256)
            (router): TopkRouting(
              (emb): Identity()
              (routing_act): Softmax(dim=-1)
            )
            (kv_gather): KVGather()
            (qkv_conv): QKVConv(
              (qkv): Conv2d(256, 768, kernel_size=(1, 1), stride=(1, 1))
            )
            (kv_down): Identity()
            (attn_act): Softmax(dim=-1)
            (proj_q): Conv2d(256, 256, kernel_size=(1, 1), stride=(1, 1))
            (proj_k): Conv2d(256, 256, kernel_size=(1, 1), stride=(1, 1))
            (proj_v): Conv2d(256, 256, kernel_size=(1, 1), stride=(1, 1))
            (proj_out): Conv2d(256, 256, kernel_size=(1, 1), stride=(1, 1))
            (unifyheads1): Conv2d(256, 256, kernel_size=(1, 1), stride=(1, 1))
            (conv_offset_q): Sequential(
              (0): Conv2d(64, 64, kernel_size=(5, 5), stride=(2, 2), padding=(2, 2), groups=64, bias=False)
              (1): LayerNormProxy(
                (norm): LayerNorm((64,), eps=1e-05, elementwise_affine=True)
              )
              (2): GELU()
              (3): Conv2d(64, 1, kernel_size=(1, 1), stride=(1, 1), bias=False)
            )
            (norm): LayerNorm((256,), eps=1e-06, elementwise_affine=True)
            (norm2): LayerNorm((256,), eps=1e-06, elementwise_affine=True)
            (mlp): TransformerMLPWithConv(
              (linear1): Sequential(
                (0): Conv2d(256, 768, kernel_size=(1, 1), stride=(1, 1))
              )
              (drop1): Dropout(p=0.0, inplace=True)
              (act): GELU()
              (linear2): Sequential(
                (0): Conv2d(768, 256, kernel_size=(1, 1), stride=(1, 1))
              )
              (drop2): Dropout(p=0.0, inplace=True)
              (dwc): Conv2d(768, 768, kernel_size=(3, 3), stride=(1, 1), padding=(1, 1), groups=768)
            )
          )
          (norm2): LayerNorm((256,), eps=1e-06, elementwise_affine=True)
          (mlp1): TransformerMLPWithConv(
            (linear1): Sequential(
              (0): Conv2d(256, 768, kernel_size=(1, 1), stride=(1, 1))
            )
            (drop1): Dropout(p=0.0, inplace=True)
            (act): GELU()
            (linear2): Sequential(
              (0): Conv2d(768, 256, kernel_size=(1, 1), stride=(1, 1))
            )
            (drop2): Dropout(p=0.0, inplace=True)
            (dwc): Conv2d(768, 768, kernel_size=(3, 3), stride=(1, 1), padding=(1, 1), groups=768)
          )
          (drop_path1): DropPath()
          (drop_path2): DropPath()
          (norm3): LayerNorm((256,), eps=1e-06, elementwise_affine=True)
          (norm4): LayerNorm((256,), eps=1e-06, elementwise_affine=True)
          (mlp2): TransformerMLPWithConv(
            (linear1): Sequential(
              (0): Conv2d(256, 768, kernel_size=(1, 1), stride=(1, 1))
            )
            (drop1): Dropout(p=0.0, inplace=True)
            (act): GELU()
            (linear2): Sequential(
              (0): Conv2d(768, 256, kernel_size=(1, 1), stride=(1, 1))
            )
            (drop2): Dropout(p=0.0, inplace=True)
            (dwc): Conv2d(768, 768, kernel_size=(3, 3), stride=(1, 1), padding=(1, 1), groups=768)
          )
        )
        (3): Block(
          (pos_embed1): Conv2d(256, 256, kernel_size=(3, 3), stride=(1, 1), padding=(1, 1), groups=256)
          (pos_embed2): Conv2d(256, 256, kernel_size=(3, 3), stride=(1, 1), padding=(1, 1), groups=256)
          (norm1): LayerNorm((256,), eps=1e-06, elementwise_affine=True)
          (attn1): BiLevelRoutingAttention(
            (lepe): Conv2d(256, 256, kernel_size=(5, 5), stride=(1, 1), padding=(2, 2), groups=256)
            (router): TopkRouting(
              (emb): Identity()
              (routing_act): Softmax(dim=-1)
            )
            (kv_gather): KVGather()
            (qkv): QKVLinear(
              (qkv): Linear(in_features=256, out_features=768, bias=True)
            )
            (wo): Linear(in_features=256, out_features=256, bias=True)
            (kv_down): Identity()
            (attn_act): Softmax(dim=-1)
          )
          (attn2): DeBiLevelRoutingAttention(
            (lepe1): Conv2d(256, 256, kernel_size=(5, 5), stride=(2, 2), padding=(2, 2), groups=256)
            (router): TopkRouting(
              (emb): Identity()
              (routing_act): Softmax(dim=-1)
            )
            (kv_gather): KVGather()
            (qkv_conv): QKVConv(
              (qkv): Conv2d(256, 768, kernel_size=(1, 1), stride=(1, 1))
            )
            (kv_down): Identity()
            (attn_act): Softmax(dim=-1)
            (proj_q): Conv2d(256, 256, kernel_size=(1, 1), stride=(1, 1))
            (proj_k): Conv2d(256, 256, kernel_size=(1, 1), stride=(1, 1))
            (proj_v): Conv2d(256, 256, kernel_size=(1, 1), stride=(1, 1))
            (proj_out): Conv2d(256, 256, kernel_size=(1, 1), stride=(1, 1))
            (unifyheads1): Conv2d(256, 256, kernel_size=(1, 1), stride=(1, 1))
            (conv_offset_q): Sequential(
              (0): Conv2d(64, 64, kernel_size=(5, 5), stride=(2, 2), padding=(2, 2), groups=64, bias=False)
              (1): LayerNormProxy(
                (norm): LayerNorm((64,), eps=1e-05, elementwise_affine=True)
              )
              (2): GELU()
              (3): Conv2d(64, 1, kernel_size=(1, 1), stride=(1, 1), bias=False)
            )
            (norm): LayerNorm((256,), eps=1e-06, elementwise_affine=True)
            (norm2): LayerNorm((256,), eps=1e-06, elementwise_affine=True)
            (mlp): TransformerMLPWithConv(
              (linear1): Sequential(
                (0): Conv2d(256, 768, kernel_size=(1, 1), stride=(1, 1))
              )
              (drop1): Dropout(p=0.0, inplace=True)
              (act): GELU()
              (linear2): Sequential(
                (0): Conv2d(768, 256, kernel_size=(1, 1), stride=(1, 1))
              )
              (drop2): Dropout(p=0.0, inplace=True)
              (dwc): Conv2d(768, 768, kernel_size=(3, 3), stride=(1, 1), padding=(1, 1), groups=768)
            )
          )
          (norm2): LayerNorm((256,), eps=1e-06, elementwise_affine=True)
          (mlp1): TransformerMLPWithConv(
            (linear1): Sequential(
              (0): Conv2d(256, 768, kernel_size=(1, 1), stride=(1, 1))
            )
            (drop1): Dropout(p=0.0, inplace=True)
            (act): GELU()
            (linear2): Sequential(
              (0): Conv2d(768, 256, kernel_size=(1, 1), stride=(1, 1))
            )
            (drop2): Dropout(p=0.0, inplace=True)
            (dwc): Conv2d(768, 768, kernel_size=(3, 3), stride=(1, 1), padding=(1, 1), groups=768)
          )
          (drop_path1): DropPath()
          (drop_path2): DropPath()
          (norm3): LayerNorm((256,), eps=1e-06, elementwise_affine=True)
          (norm4): LayerNorm((256,), eps=1e-06, elementwise_affine=True)
          (mlp2): TransformerMLPWithConv(
            (linear1): Sequential(
              (0): Conv2d(256, 768, kernel_size=(1, 1), stride=(1, 1))
            )
            (drop1): Dropout(p=0.0, inplace=True)
            (act): GELU()
            (linear2): Sequential(
              (0): Conv2d(768, 256, kernel_size=(1, 1), stride=(1, 1))
            )
            (drop2): Dropout(p=0.0, inplace=True)
            (dwc): Conv2d(768, 768, kernel_size=(3, 3), stride=(1, 1), padding=(1, 1), groups=768)
          )
        )
        (4): Block(
          (pos_embed1): Conv2d(256, 256, kernel_size=(3, 3), stride=(1, 1), padding=(1, 1), groups=256)
          (pos_embed2): Conv2d(256, 256, kernel_size=(3, 3), stride=(1, 1), padding=(1, 1), groups=256)
          (norm1): LayerNorm((256,), eps=1e-06, elementwise_affine=True)
          (attn1): BiLevelRoutingAttention(
            (lepe): Conv2d(256, 256, kernel_size=(5, 5), stride=(1, 1), padding=(2, 2), groups=256)
            (router): TopkRouting(
              (emb): Identity()
              (routing_act): Softmax(dim=-1)
            )
            (kv_gather): KVGather()
            (qkv): QKVLinear(
              (qkv): Linear(in_features=256, out_features=768, bias=True)
            )
            (wo): Linear(in_features=256, out_features=256, bias=True)
            (kv_down): Identity()
            (attn_act): Softmax(dim=-1)
          )
          (attn2): DeBiLevelRoutingAttention(
            (lepe1): Conv2d(256, 256, kernel_size=(5, 5), stride=(2, 2), padding=(2, 2), groups=256)
            (router): TopkRouting(
              (emb): Identity()
              (routing_act): Softmax(dim=-1)
            )
            (kv_gather): KVGather()
            (qkv_conv): QKVConv(
              (qkv): Conv2d(256, 768, kernel_size=(1, 1), stride=(1, 1))
            )
            (kv_down): Identity()
            (attn_act): Softmax(dim=-1)
            (proj_q): Conv2d(256, 256, kernel_size=(1, 1), stride=(1, 1))
            (proj_k): Conv2d(256, 256, kernel_size=(1, 1), stride=(1, 1))
            (proj_v): Conv2d(256, 256, kernel_size=(1, 1), stride=(1, 1))
            (proj_out): Conv2d(256, 256, kernel_size=(1, 1), stride=(1, 1))
            (unifyheads1): Conv2d(256, 256, kernel_size=(1, 1), stride=(1, 1))
            (conv_offset_q): Sequential(
              (0): Conv2d(64, 64, kernel_size=(5, 5), stride=(2, 2), padding=(2, 2), groups=64, bias=False)
              (1): LayerNormProxy(
                (norm): LayerNorm((64,), eps=1e-05, elementwise_affine=True)
              )
              (2): GELU()
              (3): Conv2d(64, 1, kernel_size=(1, 1), stride=(1, 1), bias=False)
            )
            (norm): LayerNorm((256,), eps=1e-06, elementwise_affine=True)
            (norm2): LayerNorm((256,), eps=1e-06, elementwise_affine=True)
            (mlp): TransformerMLPWithConv(
              (linear1): Sequential(
                (0): Conv2d(256, 768, kernel_size=(1, 1), stride=(1, 1))
              )
              (drop1): Dropout(p=0.0, inplace=True)
              (act): GELU()
              (linear2): Sequential(
                (0): Conv2d(768, 256, kernel_size=(1, 1), stride=(1, 1))
              )
              (drop2): Dropout(p=0.0, inplace=True)
              (dwc): Conv2d(768, 768, kernel_size=(3, 3), stride=(1, 1), padding=(1, 1), groups=768)
            )
          )
          (norm2): LayerNorm((256,), eps=1e-06, elementwise_affine=True)
          (mlp1): TransformerMLPWithConv(
            (linear1): Sequential(
              (0): Conv2d(256, 768, kernel_size=(1, 1), stride=(1, 1))
            )
            (drop1): Dropout(p=0.0, inplace=True)
            (act): GELU()
            (linear2): Sequential(
              (0): Conv2d(768, 256, kernel_size=(1, 1), stride=(1, 1))
            )
            (drop2): Dropout(p=0.0, inplace=True)
            (dwc): Conv2d(768, 768, kernel_size=(3, 3), stride=(1, 1), padding=(1, 1), groups=768)
          )
          (drop_path1): DropPath()
          (drop_path2): DropPath()
          (norm3): LayerNorm((256,), eps=1e-06, elementwise_affine=True)
          (norm4): LayerNorm((256,), eps=1e-06, elementwise_affine=True)
          (mlp2): TransformerMLPWithConv(
            (linear1): Sequential(
              (0): Conv2d(256, 768, kernel_size=(1, 1), stride=(1, 1))
            )
            (drop1): Dropout(p=0.0, inplace=True)
            (act): GELU()
            (linear2): Sequential(
              (0): Conv2d(768, 256, kernel_size=(1, 1), stride=(1, 1))
            )
            (drop2): Dropout(p=0.0, inplace=True)
            (dwc): Conv2d(768, 768, kernel_size=(3, 3), stride=(1, 1), padding=(1, 1), groups=768)
          )
        )
        (5): Block(
          (pos_embed1): Conv2d(256, 256, kernel_size=(3, 3), stride=(1, 1), padding=(1, 1), groups=256)
          (pos_embed2): Conv2d(256, 256, kernel_size=(3, 3), stride=(1, 1), padding=(1, 1), groups=256)
          (norm1): LayerNorm((256,), eps=1e-06, elementwise_affine=True)
          (attn1): BiLevelRoutingAttention(
            (lepe): Conv2d(256, 256, kernel_size=(5, 5), stride=(1, 1), padding=(2, 2), groups=256)
            (router): TopkRouting(
              (emb): Identity()
              (routing_act): Softmax(dim=-1)
            )
            (kv_gather): KVGather()
            (qkv): QKVLinear(
              (qkv): Linear(in_features=256, out_features=768, bias=True)
            )
            (wo): Linear(in_features=256, out_features=256, bias=True)
            (kv_down): Identity()
            (attn_act): Softmax(dim=-1)
          )
          (attn2): DeBiLevelRoutingAttention(
            (lepe1): Conv2d(256, 256, kernel_size=(5, 5), stride=(2, 2), padding=(2, 2), groups=256)
            (router): TopkRouting(
              (emb): Identity()
              (routing_act): Softmax(dim=-1)
            )
            (kv_gather): KVGather()
            (qkv_conv): QKVConv(
              (qkv): Conv2d(256, 768, kernel_size=(1, 1), stride=(1, 1))
            )
            (kv_down): Identity()
            (attn_act): Softmax(dim=-1)
            (proj_q): Conv2d(256, 256, kernel_size=(1, 1), stride=(1, 1))
            (proj_k): Conv2d(256, 256, kernel_size=(1, 1), stride=(1, 1))
            (proj_v): Conv2d(256, 256, kernel_size=(1, 1), stride=(1, 1))
            (proj_out): Conv2d(256, 256, kernel_size=(1, 1), stride=(1, 1))
            (unifyheads1): Conv2d(256, 256, kernel_size=(1, 1), stride=(1, 1))
            (conv_offset_q): Sequential(
              (0): Conv2d(64, 64, kernel_size=(5, 5), stride=(2, 2), padding=(2, 2), groups=64, bias=False)
              (1): LayerNormProxy(
                (norm): LayerNorm((64,), eps=1e-05, elementwise_affine=True)
              )
              (2): GELU()
              (3): Conv2d(64, 1, kernel_size=(1, 1), stride=(1, 1), bias=False)
            )
            (norm): LayerNorm((256,), eps=1e-06, elementwise_affine=True)
            (norm2): LayerNorm((256,), eps=1e-06, elementwise_affine=True)
            (mlp): TransformerMLPWithConv(
              (linear1): Sequential(
                (0): Conv2d(256, 768, kernel_size=(1, 1), stride=(1, 1))
              )
              (drop1): Dropout(p=0.0, inplace=True)
              (act): GELU()
              (linear2): Sequential(
                (0): Conv2d(768, 256, kernel_size=(1, 1), stride=(1, 1))
              )
              (drop2): Dropout(p=0.0, inplace=True)
              (dwc): Conv2d(768, 768, kernel_size=(3, 3), stride=(1, 1), padding=(1, 1), groups=768)
            )
          )
          (norm2): LayerNorm((256,), eps=1e-06, elementwise_affine=True)
          (mlp1): TransformerMLPWithConv(
            (linear1): Sequential(
              (0): Conv2d(256, 768, kernel_size=(1, 1), stride=(1, 1))
            )
            (drop1): Dropout(p=0.0, inplace=True)
            (act): GELU()
            (linear2): Sequential(
              (0): Conv2d(768, 256, kernel_size=(1, 1), stride=(1, 1))
            )
            (drop2): Dropout(p=0.0, inplace=True)
            (dwc): Conv2d(768, 768, kernel_size=(3, 3), stride=(1, 1), padding=(1, 1), groups=768)
          )
          (drop_path1): DropPath()
          (drop_path2): DropPath()
          (norm3): LayerNorm((256,), eps=1e-06, elementwise_affine=True)
          (norm4): LayerNorm((256,), eps=1e-06, elementwise_affine=True)
          (mlp2): TransformerMLPWithConv(
            (linear1): Sequential(
              (0): Conv2d(256, 768, kernel_size=(1, 1), stride=(1, 1))
            )
            (drop1): Dropout(p=0.0, inplace=True)
            (act): GELU()
            (linear2): Sequential(
              (0): Conv2d(768, 256, kernel_size=(1, 1), stride=(1, 1))
            )
            (drop2): Dropout(p=0.0, inplace=True)
            (dwc): Conv2d(768, 768, kernel_size=(3, 3), stride=(1, 1), padding=(1, 1), groups=768)
          )
        )
        (6): Block(
          (pos_embed1): Conv2d(256, 256, kernel_size=(3, 3), stride=(1, 1), padding=(1, 1), groups=256)
          (pos_embed2): Conv2d(256, 256, kernel_size=(3, 3), stride=(1, 1), padding=(1, 1), groups=256)
          (norm1): LayerNorm((256,), eps=1e-06, elementwise_affine=True)
          (attn1): BiLevelRoutingAttention(
            (lepe): Conv2d(256, 256, kernel_size=(5, 5), stride=(1, 1), padding=(2, 2), groups=256)
            (router): TopkRouting(
              (emb): Identity()
              (routing_act): Softmax(dim=-1)
            )
            (kv_gather): KVGather()
            (qkv): QKVLinear(
              (qkv): Linear(in_features=256, out_features=768, bias=True)
            )
            (wo): Linear(in_features=256, out_features=256, bias=True)
            (kv_down): Identity()
            (attn_act): Softmax(dim=-1)
          )
          (attn2): DeBiLevelRoutingAttention(
            (lepe1): Conv2d(256, 256, kernel_size=(5, 5), stride=(2, 2), padding=(2, 2), groups=256)
            (router): TopkRouting(
              (emb): Identity()
              (routing_act): Softmax(dim=-1)
            )
            (kv_gather): KVGather()
            (qkv_conv): QKVConv(
              (qkv): Conv2d(256, 768, kernel_size=(1, 1), stride=(1, 1))
            )
            (kv_down): Identity()
            (attn_act): Softmax(dim=-1)
            (proj_q): Conv2d(256, 256, kernel_size=(1, 1), stride=(1, 1))
            (proj_k): Conv2d(256, 256, kernel_size=(1, 1), stride=(1, 1))
            (proj_v): Conv2d(256, 256, kernel_size=(1, 1), stride=(1, 1))
            (proj_out): Conv2d(256, 256, kernel_size=(1, 1), stride=(1, 1))
            (unifyheads1): Conv2d(256, 256, kernel_size=(1, 1), stride=(1, 1))
            (conv_offset_q): Sequential(
              (0): Conv2d(64, 64, kernel_size=(5, 5), stride=(2, 2), padding=(2, 2), groups=64, bias=False)
              (1): LayerNormProxy(
                (norm): LayerNorm((64,), eps=1e-05, elementwise_affine=True)
              )
              (2): GELU()
              (3): Conv2d(64, 1, kernel_size=(1, 1), stride=(1, 1), bias=False)
            )
            (norm): LayerNorm((256,), eps=1e-06, elementwise_affine=True)
            (norm2): LayerNorm((256,), eps=1e-06, elementwise_affine=True)
            (mlp): TransformerMLPWithConv(
              (linear1): Sequential(
                (0): Conv2d(256, 768, kernel_size=(1, 1), stride=(1, 1))
              )
              (drop1): Dropout(p=0.0, inplace=True)
              (act): GELU()
              (linear2): Sequential(
                (0): Conv2d(768, 256, kernel_size=(1, 1), stride=(1, 1))
              )
              (drop2): Dropout(p=0.0, inplace=True)
              (dwc): Conv2d(768, 768, kernel_size=(3, 3), stride=(1, 1), padding=(1, 1), groups=768)
            )
          )
          (norm2): LayerNorm((256,), eps=1e-06, elementwise_affine=True)
          (mlp1): TransformerMLPWithConv(
            (linear1): Sequential(
              (0): Conv2d(256, 768, kernel_size=(1, 1), stride=(1, 1))
            )
            (drop1): Dropout(p=0.0, inplace=True)
            (act): GELU()
            (linear2): Sequential(
              (0): Conv2d(768, 256, kernel_size=(1, 1), stride=(1, 1))
            )
            (drop2): Dropout(p=0.0, inplace=True)
            (dwc): Conv2d(768, 768, kernel_size=(3, 3), stride=(1, 1), padding=(1, 1), groups=768)
          )
          (drop_path1): DropPath()
          (drop_path2): DropPath()
          (norm3): LayerNorm((256,), eps=1e-06, elementwise_affine=True)
          (norm4): LayerNorm((256,), eps=1e-06, elementwise_affine=True)
          (mlp2): TransformerMLPWithConv(
            (linear1): Sequential(
              (0): Conv2d(256, 768, kernel_size=(1, 1), stride=(1, 1))
            )
            (drop1): Dropout(p=0.0, inplace=True)
            (act): GELU()
            (linear2): Sequential(
              (0): Conv2d(768, 256, kernel_size=(1, 1), stride=(1, 1))
            )
            (drop2): Dropout(p=0.0, inplace=True)
            (dwc): Conv2d(768, 768, kernel_size=(3, 3), stride=(1, 1), padding=(1, 1), groups=768)
          )
        )
        (7): Block(
          (pos_embed1): Conv2d(256, 256, kernel_size=(3, 3), stride=(1, 1), padding=(1, 1), groups=256)
          (pos_embed2): Conv2d(256, 256, kernel_size=(3, 3), stride=(1, 1), padding=(1, 1), groups=256)
          (norm1): LayerNorm((256,), eps=1e-06, elementwise_affine=True)
          (attn1): BiLevelRoutingAttention(
            (lepe): Conv2d(256, 256, kernel_size=(5, 5), stride=(1, 1), padding=(2, 2), groups=256)
            (router): TopkRouting(
              (emb): Identity()
              (routing_act): Softmax(dim=-1)
            )
            (kv_gather): KVGather()
            (qkv): QKVLinear(
              (qkv): Linear(in_features=256, out_features=768, bias=True)
            )
            (wo): Linear(in_features=256, out_features=256, bias=True)
            (kv_down): Identity()
            (attn_act): Softmax(dim=-1)
          )
          (attn2): DeBiLevelRoutingAttention(
            (lepe1): Conv2d(256, 256, kernel_size=(5, 5), stride=(2, 2), padding=(2, 2), groups=256)
            (router): TopkRouting(
              (emb): Identity()
              (routing_act): Softmax(dim=-1)
            )
            (kv_gather): KVGather()
            (qkv_conv): QKVConv(
              (qkv): Conv2d(256, 768, kernel_size=(1, 1), stride=(1, 1))
            )
            (kv_down): Identity()
            (attn_act): Softmax(dim=-1)
            (proj_q): Conv2d(256, 256, kernel_size=(1, 1), stride=(1, 1))
            (proj_k): Conv2d(256, 256, kernel_size=(1, 1), stride=(1, 1))
            (proj_v): Conv2d(256, 256, kernel_size=(1, 1), stride=(1, 1))
            (proj_out): Conv2d(256, 256, kernel_size=(1, 1), stride=(1, 1))
            (unifyheads1): Conv2d(256, 256, kernel_size=(1, 1), stride=(1, 1))
            (conv_offset_q): Sequential(
              (0): Conv2d(64, 64, kernel_size=(5, 5), stride=(2, 2), padding=(2, 2), groups=64, bias=False)
              (1): LayerNormProxy(
                (norm): LayerNorm((64,), eps=1e-05, elementwise_affine=True)
              )
              (2): GELU()
              (3): Conv2d(64, 1, kernel_size=(1, 1), stride=(1, 1), bias=False)
            )
            (norm): LayerNorm((256,), eps=1e-06, elementwise_affine=True)
            (norm2): LayerNorm((256,), eps=1e-06, elementwise_affine=True)
            (mlp): TransformerMLPWithConv(
              (linear1): Sequential(
                (0): Conv2d(256, 768, kernel_size=(1, 1), stride=(1, 1))
              )
              (drop1): Dropout(p=0.0, inplace=True)
              (act): GELU()
              (linear2): Sequential(
                (0): Conv2d(768, 256, kernel_size=(1, 1), stride=(1, 1))
              )
              (drop2): Dropout(p=0.0, inplace=True)
              (dwc): Conv2d(768, 768, kernel_size=(3, 3), stride=(1, 1), padding=(1, 1), groups=768)
            )
          )
          (norm2): LayerNorm((256,), eps=1e-06, elementwise_affine=True)
          (mlp1): TransformerMLPWithConv(
            (linear1): Sequential(
              (0): Conv2d(256, 768, kernel_size=(1, 1), stride=(1, 1))
            )
            (drop1): Dropout(p=0.0, inplace=True)
            (act): GELU()
            (linear2): Sequential(
              (0): Conv2d(768, 256, kernel_size=(1, 1), stride=(1, 1))
            )
            (drop2): Dropout(p=0.0, inplace=True)
            (dwc): Conv2d(768, 768, kernel_size=(3, 3), stride=(1, 1), padding=(1, 1), groups=768)
          )
          (drop_path1): DropPath()
          (drop_path2): DropPath()
          (norm3): LayerNorm((256,), eps=1e-06, elementwise_affine=True)
          (norm4): LayerNorm((256,), eps=1e-06, elementwise_affine=True)
          (mlp2): TransformerMLPWithConv(
            (linear1): Sequential(
              (0): Conv2d(256, 768, kernel_size=(1, 1), stride=(1, 1))
            )
            (drop1): Dropout(p=0.0, inplace=True)
            (act): GELU()
            (linear2): Sequential(
              (0): Conv2d(768, 256, kernel_size=(1, 1), stride=(1, 1))
            )
            (drop2): Dropout(p=0.0, inplace=True)
            (dwc): Conv2d(768, 768, kernel_size=(3, 3), stride=(1, 1), padding=(1, 1), groups=768)
          )
        )
        (8): Block(
          (pos_embed1): Conv2d(256, 256, kernel_size=(3, 3), stride=(1, 1), padding=(1, 1), groups=256)
          (pos_embed2): Conv2d(256, 256, kernel_size=(3, 3), stride=(1, 1), padding=(1, 1), groups=256)
          (norm1): LayerNorm((256,), eps=1e-06, elementwise_affine=True)
          (attn1): BiLevelRoutingAttention(
            (lepe): Conv2d(256, 256, kernel_size=(5, 5), stride=(1, 1), padding=(2, 2), groups=256)
            (router): TopkRouting(
              (emb): Identity()
              (routing_act): Softmax(dim=-1)
            )
            (kv_gather): KVGather()
            (qkv): QKVLinear(
              (qkv): Linear(in_features=256, out_features=768, bias=True)
            )
            (wo): Linear(in_features=256, out_features=256, bias=True)
            (kv_down): Identity()
            (attn_act): Softmax(dim=-1)
          )
          (attn2): DeBiLevelRoutingAttention(
            (lepe1): Conv2d(256, 256, kernel_size=(5, 5), stride=(2, 2), padding=(2, 2), groups=256)
            (router): TopkRouting(
              (emb): Identity()
              (routing_act): Softmax(dim=-1)
            )
            (kv_gather): KVGather()
            (qkv_conv): QKVConv(
              (qkv): Conv2d(256, 768, kernel_size=(1, 1), stride=(1, 1))
            )
            (kv_down): Identity()
            (attn_act): Softmax(dim=-1)
            (proj_q): Conv2d(256, 256, kernel_size=(1, 1), stride=(1, 1))
            (proj_k): Conv2d(256, 256, kernel_size=(1, 1), stride=(1, 1))
            (proj_v): Conv2d(256, 256, kernel_size=(1, 1), stride=(1, 1))
            (proj_out): Conv2d(256, 256, kernel_size=(1, 1), stride=(1, 1))
            (unifyheads1): Conv2d(256, 256, kernel_size=(1, 1), stride=(1, 1))
            (conv_offset_q): Sequential(
              (0): Conv2d(64, 64, kernel_size=(5, 5), stride=(2, 2), padding=(2, 2), groups=64, bias=False)
              (1): LayerNormProxy(
                (norm): LayerNorm((64,), eps=1e-05, elementwise_affine=True)
              )
              (2): GELU()
              (3): Conv2d(64, 1, kernel_size=(1, 1), stride=(1, 1), bias=False)
            )
            (norm): LayerNorm((256,), eps=1e-06, elementwise_affine=True)
            (norm2): LayerNorm((256,), eps=1e-06, elementwise_affine=True)
            (mlp): TransformerMLPWithConv(
              (linear1): Sequential(
                (0): Conv2d(256, 768, kernel_size=(1, 1), stride=(1, 1))
              )
              (drop1): Dropout(p=0.0, inplace=True)
              (act): GELU()
              (linear2): Sequential(
                (0): Conv2d(768, 256, kernel_size=(1, 1), stride=(1, 1))
              )
              (drop2): Dropout(p=0.0, inplace=True)
              (dwc): Conv2d(768, 768, kernel_size=(3, 3), stride=(1, 1), padding=(1, 1), groups=768)
            )
          )
          (norm2): LayerNorm((256,), eps=1e-06, elementwise_affine=True)
          (mlp1): TransformerMLPWithConv(
            (linear1): Sequential(
              (0): Conv2d(256, 768, kernel_size=(1, 1), stride=(1, 1))
            )
            (drop1): Dropout(p=0.0, inplace=True)
            (act): GELU()
            (linear2): Sequential(
              (0): Conv2d(768, 256, kernel_size=(1, 1), stride=(1, 1))
            )
            (drop2): Dropout(p=0.0, inplace=True)
            (dwc): Conv2d(768, 768, kernel_size=(3, 3), stride=(1, 1), padding=(1, 1), groups=768)
          )
          (drop_path1): DropPath()
          (drop_path2): DropPath()
          (norm3): LayerNorm((256,), eps=1e-06, elementwise_affine=True)
          (norm4): LayerNorm((256,), eps=1e-06, elementwise_affine=True)
          (mlp2): TransformerMLPWithConv(
            (linear1): Sequential(
              (0): Conv2d(256, 768, kernel_size=(1, 1), stride=(1, 1))
            )
            (drop1): Dropout(p=0.0, inplace=True)
            (act): GELU()
            (linear2): Sequential(
              (0): Conv2d(768, 256, kernel_size=(1, 1), stride=(1, 1))
            )
            (drop2): Dropout(p=0.0, inplace=True)
            (dwc): Conv2d(768, 768, kernel_size=(3, 3), stride=(1, 1), padding=(1, 1), groups=768)
          )
        )
      )
      (3): Sequential(
        (0): Block(
          (pos_embed1): Conv2d(512, 512, kernel_size=(3, 3), stride=(1, 1), padding=(1, 1), groups=512)
          (pos_embed2): Conv2d(512, 512, kernel_size=(3, 3), stride=(1, 1), padding=(1, 1), groups=512)
          (norm1): LayerNorm((512,), eps=1e-06, elementwise_affine=True)
          (attn1): DeBiLevelRoutingAttention(
            (lepe1): Conv2d(512, 512, kernel_size=(5, 5), stride=(1, 1), padding=(2, 2), groups=512)
            (router): TopkRouting(
              (emb): Identity()
              (routing_act): Softmax(dim=-1)
            )
            (kv_gather): KVGather()
            (qkv_conv): QKVConv(
              (qkv): Conv2d(512, 1536, kernel_size=(1, 1), stride=(1, 1))
            )
            (kv_down): Identity()
            (attn_act): Softmax(dim=-1)
            (proj_q): Conv2d(512, 512, kernel_size=(1, 1), stride=(1, 1))
            (proj_k): Conv2d(512, 512, kernel_size=(1, 1), stride=(1, 1))
            (proj_v): Conv2d(512, 512, kernel_size=(1, 1), stride=(1, 1))
            (proj_out): Conv2d(512, 512, kernel_size=(1, 1), stride=(1, 1))
            (unifyheads1): Conv2d(512, 512, kernel_size=(1, 1), stride=(1, 1))
            (conv_offset_q): Sequential(
              (0): Conv2d(64, 64, kernel_size=(3, 3), stride=(1, 1), padding=(1, 1), groups=64, bias=False)
              (1): LayerNormProxy(
                (norm): LayerNorm((64,), eps=1e-05, elementwise_affine=True)
              )
              (2): GELU()
              (3): Conv2d(64, 1, kernel_size=(1, 1), stride=(1, 1), bias=False)
            )
            (norm): LayerNorm((512,), eps=1e-06, elementwise_affine=True)
            (norm2): LayerNorm((512,), eps=1e-06, elementwise_affine=True)
            (mlp): TransformerMLPWithConv(
              (linear1): Sequential(
                (0): Conv2d(512, 512, kernel_size=(1, 1), stride=(1, 1))
              )
              (drop1): Dropout(p=0.0, inplace=True)
              (act): GELU()
              (linear2): Sequential(
                (0): Conv2d(512, 512, kernel_size=(1, 1), stride=(1, 1))
              )
              (drop2): Dropout(p=0.0, inplace=True)
              (dwc): Conv2d(512, 512, kernel_size=(3, 3), stride=(1, 1), padding=(1, 1), groups=512)
            )
          )
          (attn2): DeBiLevelRoutingAttention(
            (lepe1): Conv2d(512, 512, kernel_size=(5, 5), stride=(1, 1), padding=(2, 2), groups=512)
            (router): TopkRouting(
              (emb): Identity()
              (routing_act): Softmax(dim=-1)
            )
            (kv_gather): KVGather()
            (qkv_conv): QKVConv(
              (qkv): Conv2d(512, 1536, kernel_size=(1, 1), stride=(1, 1))
            )
            (kv_down): Identity()
            (attn_act): Softmax(dim=-1)
            (proj_q): Conv2d(512, 512, kernel_size=(1, 1), stride=(1, 1))
            (proj_k): Conv2d(512, 512, kernel_size=(1, 1), stride=(1, 1))
            (proj_v): Conv2d(512, 512, kernel_size=(1, 1), stride=(1, 1))
            (proj_out): Conv2d(512, 512, kernel_size=(1, 1), stride=(1, 1))
            (unifyheads1): Conv2d(512, 512, kernel_size=(1, 1), stride=(1, 1))
            (conv_offset_q): Sequential(
              (0): Conv2d(64, 64, kernel_size=(3, 3), stride=(1, 1), padding=(1, 1), groups=64, bias=False)
              (1): LayerNormProxy(
                (norm): LayerNorm((64,), eps=1e-05, elementwise_affine=True)
              )
              (2): GELU()
              (3): Conv2d(64, 1, kernel_size=(1, 1), stride=(1, 1), bias=False)
            )
            (norm): LayerNorm((512,), eps=1e-06, elementwise_affine=True)
            (norm2): LayerNorm((512,), eps=1e-06, elementwise_affine=True)
            (mlp): TransformerMLPWithConv(
              (linear1): Sequential(
                (0): Conv2d(512, 512, kernel_size=(1, 1), stride=(1, 1))
              )
              (drop1): Dropout(p=0.0, inplace=True)
              (act): GELU()
              (linear2): Sequential(
                (0): Conv2d(512, 512, kernel_size=(1, 1), stride=(1, 1))
              )
              (drop2): Dropout(p=0.0, inplace=True)
              (dwc): Conv2d(512, 512, kernel_size=(3, 3), stride=(1, 1), padding=(1, 1), groups=512)
            )
          )
          (norm2): LayerNorm((512,), eps=1e-06, elementwise_affine=True)
          (mlp1): TransformerMLPWithConv(
            (linear1): Sequential(
              (0): Conv2d(512, 1024, kernel_size=(1, 1), stride=(1, 1))
            )
            (drop1): Dropout(p=0.0, inplace=True)
            (act): GELU()
            (linear2): Sequential(
              (0): Conv2d(1024, 512, kernel_size=(1, 1), stride=(1, 1))
            )
            (drop2): Dropout(p=0.0, inplace=True)
            (dwc): Conv2d(1024, 1024, kernel_size=(3, 3), stride=(1, 1), padding=(1, 1), groups=1024)
          )
          (drop_path1): DropPath()
          (drop_path2): DropPath()
          (norm3): LayerNorm((512,), eps=1e-06, elementwise_affine=True)
          (norm4): LayerNorm((512,), eps=1e-06, elementwise_affine=True)
          (mlp2): TransformerMLPWithConv(
            (linear1): Sequential(
              (0): Conv2d(512, 1024, kernel_size=(1, 1), stride=(1, 1))
            )
            (drop1): Dropout(p=0.0, inplace=True)
            (act): GELU()
            (linear2): Sequential(
              (0): Conv2d(1024, 512, kernel_size=(1, 1), stride=(1, 1))
            )
            (drop2): Dropout(p=0.0, inplace=True)
            (dwc): Conv2d(1024, 1024, kernel_size=(3, 3), stride=(1, 1), padding=(1, 1), groups=1024)
          )
        )
        (1): Block(
          (pos_embed1): Conv2d(512, 512, kernel_size=(3, 3), stride=(1, 1), padding=(1, 1), groups=512)
          (pos_embed2): Conv2d(512, 512, kernel_size=(3, 3), stride=(1, 1), padding=(1, 1), groups=512)
          (norm1): LayerNorm((512,), eps=1e-06, elementwise_affine=True)
          (attn1): DeBiLevelRoutingAttention(
            (lepe1): Conv2d(512, 512, kernel_size=(5, 5), stride=(1, 1), padding=(2, 2), groups=512)
            (router): TopkRouting(
              (emb): Identity()
              (routing_act): Softmax(dim=-1)
            )
            (kv_gather): KVGather()
            (qkv_conv): QKVConv(
              (qkv): Conv2d(512, 1536, kernel_size=(1, 1), stride=(1, 1))
            )
            (kv_down): Identity()
            (attn_act): Softmax(dim=-1)
            (proj_q): Conv2d(512, 512, kernel_size=(1, 1), stride=(1, 1))
            (proj_k): Conv2d(512, 512, kernel_size=(1, 1), stride=(1, 1))
            (proj_v): Conv2d(512, 512, kernel_size=(1, 1), stride=(1, 1))
            (proj_out): Conv2d(512, 512, kernel_size=(1, 1), stride=(1, 1))
            (unifyheads1): Conv2d(512, 512, kernel_size=(1, 1), stride=(1, 1))
            (conv_offset_q): Sequential(
              (0): Conv2d(64, 64, kernel_size=(3, 3), stride=(1, 1), padding=(1, 1), groups=64, bias=False)
              (1): LayerNormProxy(
                (norm): LayerNorm((64,), eps=1e-05, elementwise_affine=True)
              )
              (2): GELU()
              (3): Conv2d(64, 1, kernel_size=(1, 1), stride=(1, 1), bias=False)
            )
            (norm): LayerNorm((512,), eps=1e-06, elementwise_affine=True)
            (norm2): LayerNorm((512,), eps=1e-06, elementwise_affine=True)
            (mlp): TransformerMLPWithConv(
              (linear1): Sequential(
                (0): Conv2d(512, 512, kernel_size=(1, 1), stride=(1, 1))
              )
              (drop1): Dropout(p=0.0, inplace=True)
              (act): GELU()
              (linear2): Sequential(
                (0): Conv2d(512, 512, kernel_size=(1, 1), stride=(1, 1))
              )
              (drop2): Dropout(p=0.0, inplace=True)
              (dwc): Conv2d(512, 512, kernel_size=(3, 3), stride=(1, 1), padding=(1, 1), groups=512)
            )
          )
          (attn2): DeBiLevelRoutingAttention(
            (lepe1): Conv2d(512, 512, kernel_size=(5, 5), stride=(1, 1), padding=(2, 2), groups=512)
            (router): TopkRouting(
              (emb): Identity()
              (routing_act): Softmax(dim=-1)
            )
            (kv_gather): KVGather()
            (qkv_conv): QKVConv(
              (qkv): Conv2d(512, 1536, kernel_size=(1, 1), stride=(1, 1))
            )
            (kv_down): Identity()
            (attn_act): Softmax(dim=-1)
            (proj_q): Conv2d(512, 512, kernel_size=(1, 1), stride=(1, 1))
            (proj_k): Conv2d(512, 512, kernel_size=(1, 1), stride=(1, 1))
            (proj_v): Conv2d(512, 512, kernel_size=(1, 1), stride=(1, 1))
            (proj_out): Conv2d(512, 512, kernel_size=(1, 1), stride=(1, 1))
            (unifyheads1): Conv2d(512, 512, kernel_size=(1, 1), stride=(1, 1))
            (conv_offset_q): Sequential(
              (0): Conv2d(64, 64, kernel_size=(3, 3), stride=(1, 1), padding=(1, 1), groups=64, bias=False)
              (1): LayerNormProxy(
                (norm): LayerNorm((64,), eps=1e-05, elementwise_affine=True)
              )
              (2): GELU()
              (3): Conv2d(64, 1, kernel_size=(1, 1), stride=(1, 1), bias=False)
            )
            (norm): LayerNorm((512,), eps=1e-06, elementwise_affine=True)
            (norm2): LayerNorm((512,), eps=1e-06, elementwise_affine=True)
            (mlp): TransformerMLPWithConv(
              (linear1): Sequential(
                (0): Conv2d(512, 512, kernel_size=(1, 1), stride=(1, 1))
              )
              (drop1): Dropout(p=0.0, inplace=True)
              (act): GELU()
              (linear2): Sequential(
                (0): Conv2d(512, 512, kernel_size=(1, 1), stride=(1, 1))
              )
              (drop2): Dropout(p=0.0, inplace=True)
              (dwc): Conv2d(512, 512, kernel_size=(3, 3), stride=(1, 1), padding=(1, 1), groups=512)
            )
          )
          (norm2): LayerNorm((512,), eps=1e-06, elementwise_affine=True)
          (mlp1): TransformerMLPWithConv(
            (linear1): Sequential(
              (0): Conv2d(512, 1024, kernel_size=(1, 1), stride=(1, 1))
            )
            (drop1): Dropout(p=0.0, inplace=True)
            (act): GELU()
            (linear2): Sequential(
              (0): Conv2d(1024, 512, kernel_size=(1, 1), stride=(1, 1))
            )
            (drop2): Dropout(p=0.0, inplace=True)
            (dwc): Conv2d(1024, 1024, kernel_size=(3, 3), stride=(1, 1), padding=(1, 1), groups=1024)
          )
          (drop_path1): DropPath()
          (drop_path2): DropPath()
          (norm3): LayerNorm((512,), eps=1e-06, elementwise_affine=True)
          (norm4): LayerNorm((512,), eps=1e-06, elementwise_affine=True)
          (mlp2): TransformerMLPWithConv(
            (linear1): Sequential(
              (0): Conv2d(512, 1024, kernel_size=(1, 1), stride=(1, 1))
            )
            (drop1): Dropout(p=0.0, inplace=True)
            (act): GELU()
            (linear2): Sequential(
              (0): Conv2d(1024, 512, kernel_size=(1, 1), stride=(1, 1))
            )
            (drop2): Dropout(p=0.0, inplace=True)
            (dwc): Conv2d(1024, 1024, kernel_size=(3, 3), stride=(1, 1), padding=(1, 1), groups=1024)
          )
        )
        (2): Block(
          (pos_embed1): Conv2d(512, 512, kernel_size=(3, 3), stride=(1, 1), padding=(1, 1), groups=512)
          (pos_embed2): Conv2d(512, 512, kernel_size=(3, 3), stride=(1, 1), padding=(1, 1), groups=512)
          (norm1): LayerNorm((512,), eps=1e-06, elementwise_affine=True)
          (attn1): DeBiLevelRoutingAttention(
            (lepe1): Conv2d(512, 512, kernel_size=(5, 5), stride=(1, 1), padding=(2, 2), groups=512)
            (router): TopkRouting(
              (emb): Identity()
              (routing_act): Softmax(dim=-1)
            )
            (kv_gather): KVGather()
            (qkv_conv): QKVConv(
              (qkv): Conv2d(512, 1536, kernel_size=(1, 1), stride=(1, 1))
            )
            (kv_down): Identity()
            (attn_act): Softmax(dim=-1)
            (proj_q): Conv2d(512, 512, kernel_size=(1, 1), stride=(1, 1))
            (proj_k): Conv2d(512, 512, kernel_size=(1, 1), stride=(1, 1))
            (proj_v): Conv2d(512, 512, kernel_size=(1, 1), stride=(1, 1))
            (proj_out): Conv2d(512, 512, kernel_size=(1, 1), stride=(1, 1))
            (unifyheads1): Conv2d(512, 512, kernel_size=(1, 1), stride=(1, 1))
            (conv_offset_q): Sequential(
              (0): Conv2d(64, 64, kernel_size=(3, 3), stride=(1, 1), padding=(1, 1), groups=64, bias=False)
              (1): LayerNormProxy(
                (norm): LayerNorm((64,), eps=1e-05, elementwise_affine=True)
              )
              (2): GELU()
              (3): Conv2d(64, 1, kernel_size=(1, 1), stride=(1, 1), bias=False)
            )
            (norm): LayerNorm((512,), eps=1e-06, elementwise_affine=True)
            (norm2): LayerNorm((512,), eps=1e-06, elementwise_affine=True)
            (mlp): TransformerMLPWithConv(
              (linear1): Sequential(
                (0): Conv2d(512, 512, kernel_size=(1, 1), stride=(1, 1))
              )
              (drop1): Dropout(p=0.0, inplace=True)
              (act): GELU()
              (linear2): Sequential(
                (0): Conv2d(512, 512, kernel_size=(1, 1), stride=(1, 1))
              )
              (drop2): Dropout(p=0.0, inplace=True)
              (dwc): Conv2d(512, 512, kernel_size=(3, 3), stride=(1, 1), padding=(1, 1), groups=512)
            )
          )
          (attn2): DeBiLevelRoutingAttention(
            (lepe1): Conv2d(512, 512, kernel_size=(5, 5), stride=(1, 1), padding=(2, 2), groups=512)
            (router): TopkRouting(
              (emb): Identity()
              (routing_act): Softmax(dim=-1)
            )
            (kv_gather): KVGather()
            (qkv_conv): QKVConv(
              (qkv): Conv2d(512, 1536, kernel_size=(1, 1), stride=(1, 1))
            )
            (kv_down): Identity()
            (attn_act): Softmax(dim=-1)
            (proj_q): Conv2d(512, 512, kernel_size=(1, 1), stride=(1, 1))
            (proj_k): Conv2d(512, 512, kernel_size=(1, 1), stride=(1, 1))
            (proj_v): Conv2d(512, 512, kernel_size=(1, 1), stride=(1, 1))
            (proj_out): Conv2d(512, 512, kernel_size=(1, 1), stride=(1, 1))
            (unifyheads1): Conv2d(512, 512, kernel_size=(1, 1), stride=(1, 1))
            (conv_offset_q): Sequential(
              (0): Conv2d(64, 64, kernel_size=(3, 3), stride=(1, 1), padding=(1, 1), groups=64, bias=False)
              (1): LayerNormProxy(
                (norm): LayerNorm((64,), eps=1e-05, elementwise_affine=True)
              )
              (2): GELU()
              (3): Conv2d(64, 1, kernel_size=(1, 1), stride=(1, 1), bias=False)
            )
            (norm): LayerNorm((512,), eps=1e-06, elementwise_affine=True)
            (norm2): LayerNorm((512,), eps=1e-06, elementwise_affine=True)
            (mlp): TransformerMLPWithConv(
              (linear1): Sequential(
                (0): Conv2d(512, 512, kernel_size=(1, 1), stride=(1, 1))
              )
              (drop1): Dropout(p=0.0, inplace=True)
              (act): GELU()
              (linear2): Sequential(
                (0): Conv2d(512, 512, kernel_size=(1, 1), stride=(1, 1))
              )
              (drop2): Dropout(p=0.0, inplace=True)
              (dwc): Conv2d(512, 512, kernel_size=(3, 3), stride=(1, 1), padding=(1, 1), groups=512)
            )
          )
          (norm2): LayerNorm((512,), eps=1e-06, elementwise_affine=True)
          (mlp1): TransformerMLPWithConv(
            (linear1): Sequential(
              (0): Conv2d(512, 1024, kernel_size=(1, 1), stride=(1, 1))
            )
            (drop1): Dropout(p=0.0, inplace=True)
            (act): GELU()
            (linear2): Sequential(
              (0): Conv2d(1024, 512, kernel_size=(1, 1), stride=(1, 1))
            )
            (drop2): Dropout(p=0.0, inplace=True)
            (dwc): Conv2d(1024, 1024, kernel_size=(3, 3), stride=(1, 1), padding=(1, 1), groups=1024)
          )
          (drop_path1): DropPath()
          (drop_path2): DropPath()
          (norm3): LayerNorm((512,), eps=1e-06, elementwise_affine=True)
          (norm4): LayerNorm((512,), eps=1e-06, elementwise_affine=True)
          (mlp2): TransformerMLPWithConv(
            (linear1): Sequential(
              (0): Conv2d(512, 1024, kernel_size=(1, 1), stride=(1, 1))
            )
            (drop1): Dropout(p=0.0, inplace=True)
            (act): GELU()
            (linear2): Sequential(
              (0): Conv2d(1024, 512, kernel_size=(1, 1), stride=(1, 1))
            )
            (drop2): Dropout(p=0.0, inplace=True)
            (dwc): Conv2d(1024, 1024, kernel_size=(3, 3), stride=(1, 1), padding=(1, 1), groups=1024)
          )
        )
      )
    )
    (pre_logits): Identity()
    (extra_norms): ModuleList(
      (0): LayerNorm2d(
        (ln): LayerNorm((64,), eps=1e-05, elementwise_affine=True)
      )
      (1): LayerNorm2d(
        (ln): LayerNorm((128,), eps=1e-05, elementwise_affine=True)
      )
      (2): LayerNorm2d(
        (ln): LayerNorm((256,), eps=1e-05, elementwise_affine=True)
      )
      (3): LayerNorm2d(
        (ln): LayerNorm((512,), eps=1e-05, elementwise_affine=True)
      )
    )
  )
  (neck): FPN(
    (lateral_convs): ModuleList(
      (0): ConvModule(
        (conv): Conv2d(64, 256, kernel_size=(1, 1), stride=(1, 1))
      )
      (1): ConvModule(
        (conv): Conv2d(128, 256, kernel_size=(1, 1), stride=(1, 1))
      )
      (2): ConvModule(
        (conv): Conv2d(256, 256, kernel_size=(1, 1), stride=(1, 1))
      )
      (3): ConvModule(
        (conv): Conv2d(512, 256, kernel_size=(1, 1), stride=(1, 1))
      )
    )
    (fpn_convs): ModuleList(
      (0): ConvModule(
        (conv): Conv2d(256, 256, kernel_size=(3, 3), stride=(1, 1), padding=(1, 1))
      )
      (1): ConvModule(
        (conv): Conv2d(256, 256, kernel_size=(3, 3), stride=(1, 1), padding=(1, 1))
      )
      (2): ConvModule(
        (conv): Conv2d(256, 256, kernel_size=(3, 3), stride=(1, 1), padding=(1, 1))
      )
      (3): ConvModule(
        (conv): Conv2d(256, 256, kernel_size=(3, 3), stride=(1, 1), padding=(1, 1))
      )
    )
  )
  init_cfg={'type': 'Xavier', 'layer': 'Conv2d', 'distribution': 'uniform'}
  (decode_head): FPNHead(
    input_transform=multiple_select, ignore_index=255, align_corners=False
    (loss_decode): CrossEntropyLoss(avg_non_ignore=False)
    (conv_seg): Conv2d(128, 150, kernel_size=(1, 1), stride=(1, 1))
    (dropout): Dropout2d(p=0.1, inplace=False)
    (scale_heads): ModuleList(
      (0): Sequential(
        (0): ConvModule(
          (conv): Conv2d(256, 128, kernel_size=(3, 3), stride=(1, 1), padding=(1, 1), bias=False)
          (bn): SyncBatchNorm(128, eps=1e-05, momentum=0.1, affine=True, track_running_stats=True)
          (activate): ReLU(inplace=True)
        )
      )
      (1): Sequential(
        (0): ConvModule(
          (conv): Conv2d(256, 128, kernel_size=(3, 3), stride=(1, 1), padding=(1, 1), bias=False)
          (bn): SyncBatchNorm(128, eps=1e-05, momentum=0.1, affine=True, track_running_stats=True)
          (activate): ReLU(inplace=True)
        )
        (1): Upsample()
      )
      (2): Sequential(
        (0): ConvModule(
          (conv): Conv2d(256, 128, kernel_size=(3, 3), stride=(1, 1), padding=(1, 1), bias=False)
          (bn): SyncBatchNorm(128, eps=1e-05, momentum=0.1, affine=True, track_running_stats=True)
          (activate): ReLU(inplace=True)
        )
        (1): Upsample()
        (2): ConvModule(
          (conv): Conv2d(128, 128, kernel_size=(3, 3), stride=(1, 1), padding=(1, 1), bias=False)
          (bn): SyncBatchNorm(128, eps=1e-05, momentum=0.1, affine=True, track_running_stats=True)
          (activate): ReLU(inplace=True)
        )
        (3): Upsample()
      )
      (3): Sequential(
        (0): ConvModule(
          (conv): Conv2d(256, 128, kernel_size=(3, 3), stride=(1, 1), padding=(1, 1), bias=False)
          (bn): SyncBatchNorm(128, eps=1e-05, momentum=0.1, affine=True, track_running_stats=True)
          (activate): ReLU(inplace=True)
        )
        (1): Upsample()
        (2): ConvModule(
          (conv): Conv2d(128, 128, kernel_size=(3, 3), stride=(1, 1), padding=(1, 1), bias=False)
          (bn): SyncBatchNorm(128, eps=1e-05, momentum=0.1, affine=True, track_running_stats=True)
          (activate): ReLU(inplace=True)
        )
        (3): Upsample()
        (4): ConvModule(
          (conv): Conv2d(128, 128, kernel_size=(3, 3), stride=(1, 1), padding=(1, 1), bias=False)
          (bn): SyncBatchNorm(128, eps=1e-05, momentum=0.1, affine=True, track_running_stats=True)
          (activate): ReLU(inplace=True)
        )
        (5): Upsample()
      )
    )
  )
  init_cfg={'type': 'Normal', 'std': 0.01, 'override': {'name': 'conv_seg'}}
)
2024-01-05 09:44:11,630 - mmseg - INFO - Loaded 20210 images
…
