…
NormalInit: mean=0, std=0.01, bias=0 

auxiliary_head.convs.0.conv.weight - torch.Size([256, 384, 3, 3]): 
The value is the same before and after calling `init_weights` of EncoderDecoder  

auxiliary_head.convs.0.bn.weight - torch.Size([256]): 
The value is the same before and after calling `init_weights` of EncoderDecoder  

auxiliary_head.convs.0.bn.bias - torch.Size([256]): 
The value is the same before and after calling `init_weights` of EncoderDecoder  
2023-11-26 13:45:21,372 - mmseg - INFO - EncoderDecoder(
  (backbone): debi_base(
    (downsample_layers): ModuleList(
      (0): Sequential(
        (0): Conv2d(3, 48, kernel_size=(3, 3), stride=(2, 2), padding=(1, 1))
        (1): BatchNorm2d(48, eps=1e-05, momentum=0.1, affine=True, track_running_stats=True)
        (2): GELU()
        (3): Conv2d(48, 96, kernel_size=(3, 3), stride=(2, 2), padding=(1, 1))
        (4): BatchNorm2d(96, eps=1e-05, momentum=0.1, affine=True, track_running_stats=True)
      )
      (1): Sequential(
        (0): Conv2d(96, 192, kernel_size=(3, 3), stride=(2, 2), padding=(1, 1))
        (1): BatchNorm2d(192, eps=1e-05, momentum=0.1, affine=True, track_running_stats=True)
      )
      (2): Sequential(
        (0): Conv2d(192, 384, kernel_size=(3, 3), stride=(2, 2), padding=(1, 1))
        (1): BatchNorm2d(384, eps=1e-05, momentum=0.1, affine=True, track_running_stats=True)
      )
      (3): Sequential(
        (0): Conv2d(384, 768, kernel_size=(3, 3), stride=(2, 2), padding=(1, 1))
        (1): BatchNorm2d(768, eps=1e-05, momentum=0.1, affine=True, track_running_stats=True)
      )
    )
    (stages): ModuleList(
      (0): Sequential(
        (0): Block(
          (pos_embed1): Conv2d(96, 96, kernel_size=(3, 3), stride=(1, 1), padding=(1, 1), groups=96)
          (pos_embed2): Conv2d(96, 96, kernel_size=(3, 3), stride=(1, 1), padding=(1, 1), groups=96)
          (norm1): LayerNorm((96,), eps=1e-06, elementwise_affine=True)
          (attn1): BiLevelRoutingAttention(
            (lepe): Conv2d(96, 96, kernel_size=(5, 5), stride=(1, 1), padding=(2, 2), groups=96)
            (router): TopkRouting(
              (emb): Identity()
              (routing_act): Softmax(dim=-1)
            )
            (kv_gather): KVGather()
            (qkv): QKVLinear(
              (qkv): Linear(in_features=96, out_features=288, bias=True)
            )
            (wo): Linear(in_features=96, out_features=96, bias=True)
            (kv_down): Identity()
            (attn_act): Softmax(dim=-1)
          )
          (attn2): DeBiLevelRoutingAttention(
            (lepe1): Conv2d(96, 96, kernel_size=(5, 5), stride=(8, 8), padding=(2, 2), groups=96)
            (router): TopkRouting(
              (emb): Identity()
              (routing_act): Softmax(dim=-1)
            )
            (kv_gather): KVGather()
            (qkv_conv): QKVConv(
              (qkv): Conv2d(96, 288, kernel_size=(1, 1), stride=(1, 1))
            )
            (kv_down): Identity()
            (attn_act): Softmax(dim=-1)
            (proj_q): Conv2d(96, 96, kernel_size=(1, 1), stride=(1, 1))
            (proj_k): Conv2d(96, 96, kernel_size=(1, 1), stride=(1, 1))
            (proj_v): Conv2d(96, 96, kernel_size=(1, 1), stride=(1, 1))
            (proj_out): Conv2d(96, 96, kernel_size=(1, 1), stride=(1, 1))
            (unifyheads1): Conv2d(96, 96, kernel_size=(1, 1), stride=(1, 1))
            (conv_offset_q): Sequential(
              (0): Conv2d(96, 96, kernel_size=(9, 9), stride=(8, 8), padding=(4, 4), groups=96, bias=False)
              (1): LayerNormProxy(
                (norm): LayerNorm((96,), eps=1e-05, elementwise_affine=True)
              )
              (2): GELU()
              (3): Conv2d(96, 1, kernel_size=(1, 1), stride=(1, 1), bias=False)
            )
            (norm): LayerNorm((96,), eps=1e-06, elementwise_affine=True)
            (norm2): LayerNorm((96,), eps=1e-06, elementwise_affine=True)
            (mlp): TransformerMLPWithConv(
              (linear1): Sequential(
                (0): Conv2d(96, 288, kernel_size=(1, 1), stride=(1, 1))
              )
              (drop1): Dropout(p=0.0, inplace=True)
              (act): GELU()
              (linear2): Sequential(
                (0): Conv2d(288, 96, kernel_size=(1, 1), stride=(1, 1))
              )
              (drop2): Dropout(p=0.0, inplace=True)
              (dwc): Conv2d(288, 288, kernel_size=(3, 3), stride=(1, 1), padding=(1, 1), groups=288)
            )
          )
          (norm2): LayerNorm((96,), eps=1e-06, elementwise_affine=True)
          (mlp1): TransformerMLPWithConv(
            (linear1): Sequential(
              (0): Conv2d(96, 288, kernel_size=(1, 1), stride=(1, 1))
            )
            (drop1): Dropout(p=0.0, inplace=True)
            (act): GELU()
            (linear2): Sequential(
              (0): Conv2d(288, 96, kernel_size=(1, 1), stride=(1, 1))
            )
            (drop2): Dropout(p=0.0, inplace=True)
            (dwc): Conv2d(288, 288, kernel_size=(3, 3), stride=(1, 1), padding=(1, 1), groups=288)
          )
          (drop_path1): Identity()
          (drop_path2): Identity()
          (norm3): LayerNorm((96,), eps=1e-06, elementwise_affine=True)
          (norm4): LayerNorm((96,), eps=1e-06, elementwise_affine=True)
          (mlp2): TransformerMLPWithConv(
            (linear1): Sequential(
              (0): Conv2d(96, 288, kernel_size=(1, 1), stride=(1, 1))
            )
            (drop1): Dropout(p=0.0, inplace=True)
            (act): GELU()
            (linear2): Sequential(
              (0): Conv2d(288, 96, kernel_size=(1, 1), stride=(1, 1))
            )
            (drop2): Dropout(p=0.0, inplace=True)
            (dwc): Conv2d(288, 288, kernel_size=(3, 3), stride=(1, 1), padding=(1, 1), groups=288)
          )
        )
        (1): Block(
          (pos_embed1): Conv2d(96, 96, kernel_size=(3, 3), stride=(1, 1), padding=(1, 1), groups=96)
          (pos_embed2): Conv2d(96, 96, kernel_size=(3, 3), stride=(1, 1), padding=(1, 1), groups=96)
          (norm1): LayerNorm((96,), eps=1e-06, elementwise_affine=True)
          (attn1): BiLevelRoutingAttention(
            (lepe): Conv2d(96, 96, kernel_size=(5, 5), stride=(1, 1), padding=(2, 2), groups=96)
            (router): TopkRouting(
              (emb): Identity()
              (routing_act): Softmax(dim=-1)
            )
            (kv_gather): KVGather()
            (qkv): QKVLinear(
              (qkv): Linear(in_features=96, out_features=288, bias=True)
            )
            (wo): Linear(in_features=96, out_features=96, bias=True)
            (kv_down): Identity()
            (attn_act): Softmax(dim=-1)
          )
          (attn2): DeBiLevelRoutingAttention(
            (lepe1): Conv2d(96, 96, kernel_size=(5, 5), stride=(8, 8), padding=(2, 2), groups=96)
            (router): TopkRouting(
              (emb): Identity()
              (routing_act): Softmax(dim=-1)
            )
            (kv_gather): KVGather()
            (qkv_conv): QKVConv(
              (qkv): Conv2d(96, 288, kernel_size=(1, 1), stride=(1, 1))
            )
            (kv_down): Identity()
            (attn_act): Softmax(dim=-1)
            (proj_q): Conv2d(96, 96, kernel_size=(1, 1), stride=(1, 1))
            (proj_k): Conv2d(96, 96, kernel_size=(1, 1), stride=(1, 1))
            (proj_v): Conv2d(96, 96, kernel_size=(1, 1), stride=(1, 1))
            (proj_out): Conv2d(96, 96, kernel_size=(1, 1), stride=(1, 1))
            (unifyheads1): Conv2d(96, 96, kernel_size=(1, 1), stride=(1, 1))
            (conv_offset_q): Sequential(
              (0): Conv2d(96, 96, kernel_size=(9, 9), stride=(8, 8), padding=(4, 4), groups=96, bias=False)
              (1): LayerNormProxy(
                (norm): LayerNorm((96,), eps=1e-05, elementwise_affine=True)
              )
              (2): GELU()
              (3): Conv2d(96, 1, kernel_size=(1, 1), stride=(1, 1), bias=False)
            )
            (norm): LayerNorm((96,), eps=1e-06, elementwise_affine=True)
            (norm2): LayerNorm((96,), eps=1e-06, elementwise_affine=True)
            (mlp): TransformerMLPWithConv(
              (linear1): Sequential(
                (0): Conv2d(96, 288, kernel_size=(1, 1), stride=(1, 1))
              )
              (drop1): Dropout(p=0.0, inplace=True)
              (act): GELU()
              (linear2): Sequential(
                (0): Conv2d(288, 96, kernel_size=(1, 1), stride=(1, 1))
              )
              (drop2): Dropout(p=0.0, inplace=True)
              (dwc): Conv2d(288, 288, kernel_size=(3, 3), stride=(1, 1), padding=(1, 1), groups=288)
            )
          )
          (norm2): LayerNorm((96,), eps=1e-06, elementwise_affine=True)
          (mlp1): TransformerMLPWithConv(
            (linear1): Sequential(
              (0): Conv2d(96, 288, kernel_size=(1, 1), stride=(1, 1))
            )
            (drop1): Dropout(p=0.0, inplace=True)
            (act): GELU()
            (linear2): Sequential(
              (0): Conv2d(288, 96, kernel_size=(1, 1), stride=(1, 1))
            )
            (drop2): Dropout(p=0.0, inplace=True)
            (dwc): Conv2d(288, 288, kernel_size=(3, 3), stride=(1, 1), padding=(1, 1), groups=288)
          )
          (drop_path1): DropPath()
          (drop_path2): DropPath()
          (norm3): LayerNorm((96,), eps=1e-06, elementwise_affine=True)
          (norm4): LayerNorm((96,), eps=1e-06, elementwise_affine=True)
          (mlp2): TransformerMLPWithConv(
            (linear1): Sequential(
              (0): Conv2d(96, 288, kernel_size=(1, 1), stride=(1, 1))
            )
            (drop1): Dropout(p=0.0, inplace=True)
            (act): GELU()
            (linear2): Sequential(
              (0): Conv2d(288, 96, kernel_size=(1, 1), stride=(1, 1))
            )
            (drop2): Dropout(p=0.0, inplace=True)
            (dwc): Conv2d(288, 288, kernel_size=(3, 3), stride=(1, 1), padding=(1, 1), groups=288)
          )
        )
      )
      (1): Sequential(
        (0): Block(
          (pos_embed1): Conv2d(192, 192, kernel_size=(3, 3), stride=(1, 1), padding=(1, 1), groups=192)
          (pos_embed2): Conv2d(192, 192, kernel_size=(3, 3), stride=(1, 1), padding=(1, 1), groups=192)
          (norm1): LayerNorm((192,), eps=1e-06, elementwise_affine=True)
          (attn1): BiLevelRoutingAttention(
            (lepe): Conv2d(192, 192, kernel_size=(5, 5), stride=(1, 1), padding=(2, 2), groups=192)
            (router): TopkRouting(
              (emb): Identity()
              (routing_act): Softmax(dim=-1)
            )
            (kv_gather): KVGather()
            (qkv): QKVLinear(
              (qkv): Linear(in_features=192, out_features=576, bias=True)
            )
            (wo): Linear(in_features=192, out_features=192, bias=True)
            (kv_down): Identity()
            (attn_act): Softmax(dim=-1)
          )
          (attn2): DeBiLevelRoutingAttention(
            (lepe1): Conv2d(192, 192, kernel_size=(5, 5), stride=(4, 4), padding=(2, 2), groups=192)
            (router): TopkRouting(
              (emb): Identity()
              (routing_act): Softmax(dim=-1)
            )
            (kv_gather): KVGather()
            (qkv_conv): QKVConv(
              (qkv): Conv2d(192, 576, kernel_size=(1, 1), stride=(1, 1))
            )
            (kv_down): Identity()
            (attn_act): Softmax(dim=-1)
            (proj_q): Conv2d(192, 192, kernel_size=(1, 1), stride=(1, 1))
            (proj_k): Conv2d(192, 192, kernel_size=(1, 1), stride=(1, 1))
            (proj_v): Conv2d(192, 192, kernel_size=(1, 1), stride=(1, 1))
            (proj_out): Conv2d(192, 192, kernel_size=(1, 1), stride=(1, 1))
            (unifyheads1): Conv2d(192, 192, kernel_size=(1, 1), stride=(1, 1))
            (conv_offset_q): Sequential(
              (0): Conv2d(96, 96, kernel_size=(7, 7), stride=(4, 4), padding=(3, 3), groups=96, bias=False)
              (1): LayerNormProxy(
                (norm): LayerNorm((96,), eps=1e-05, elementwise_affine=True)
              )
              (2): GELU()
              (3): Conv2d(96, 1, kernel_size=(1, 1), stride=(1, 1), bias=False)
            )
            (norm): LayerNorm((192,), eps=1e-06, elementwise_affine=True)
            (norm2): LayerNorm((192,), eps=1e-06, elementwise_affine=True)
            (mlp): TransformerMLPWithConv(
              (linear1): Sequential(
                (0): Conv2d(192, 576, kernel_size=(1, 1), stride=(1, 1))
              )
              (drop1): Dropout(p=0.0, inplace=True)
              (act): GELU()
              (linear2): Sequential(
                (0): Conv2d(576, 192, kernel_size=(1, 1), stride=(1, 1))
              )
              (drop2): Dropout(p=0.0, inplace=True)
              (dwc): Conv2d(576, 576, kernel_size=(3, 3), stride=(1, 1), padding=(1, 1), groups=576)
            )
          )
          (norm2): LayerNorm((192,), eps=1e-06, elementwise_affine=True)
          (mlp1): TransformerMLPWithConv(
            (linear1): Sequential(
              (0): Conv2d(192, 576, kernel_size=(1, 1), stride=(1, 1))
            )
            (drop1): Dropout(p=0.0, inplace=True)
            (act): GELU()
            (linear2): Sequential(
              (0): Conv2d(576, 192, kernel_size=(1, 1), stride=(1, 1))
            )
            (drop2): Dropout(p=0.0, inplace=True)
            (dwc): Conv2d(576, 576, kernel_size=(3, 3), stride=(1, 1), padding=(1, 1), groups=576)
          )
          (drop_path1): DropPath()
          (drop_path2): DropPath()
          (norm3): LayerNorm((192,), eps=1e-06, elementwise_affine=True)
          (norm4): LayerNorm((192,), eps=1e-06, elementwise_affine=True)
          (mlp2): TransformerMLPWithConv(
            (linear1): Sequential(
              (0): Conv2d(192, 576, kernel_size=(1, 1), stride=(1, 1))
            )
            (drop1): Dropout(p=0.0, inplace=True)
            (act): GELU()
            (linear2): Sequential(
              (0): Conv2d(576, 192, kernel_size=(1, 1), stride=(1, 1))
            )
            (drop2): Dropout(p=0.0, inplace=True)
            (dwc): Conv2d(576, 576, kernel_size=(3, 3), stride=(1, 1), padding=(1, 1), groups=576)
          )
        )
        (1): Block(
          (pos_embed1): Conv2d(192, 192, kernel_size=(3, 3), stride=(1, 1), padding=(1, 1), groups=192)
          (pos_embed2): Conv2d(192, 192, kernel_size=(3, 3), stride=(1, 1), padding=(1, 1), groups=192)
          (norm1): LayerNorm((192,), eps=1e-06, elementwise_affine=True)
          (attn1): BiLevelRoutingAttention(
            (lepe): Conv2d(192, 192, kernel_size=(5, 5), stride=(1, 1), padding=(2, 2), groups=192)
            (router): TopkRouting(
              (emb): Identity()
              (routing_act): Softmax(dim=-1)
            )
            (kv_gather): KVGather()
            (qkv): QKVLinear(
              (qkv): Linear(in_features=192, out_features=576, bias=True)
            )
            (wo): Linear(in_features=192, out_features=192, bias=True)
            (kv_down): Identity()
            (attn_act): Softmax(dim=-1)
          )
          (attn2): DeBiLevelRoutingAttention(
            (lepe1): Conv2d(192, 192, kernel_size=(5, 5), stride=(4, 4), padding=(2, 2), groups=192)
            (router): TopkRouting(
              (emb): Identity()
              (routing_act): Softmax(dim=-1)
            )
            (kv_gather): KVGather()
            (qkv_conv): QKVConv(
              (qkv): Conv2d(192, 576, kernel_size=(1, 1), stride=(1, 1))
            )
            (kv_down): Identity()
            (attn_act): Softmax(dim=-1)
            (proj_q): Conv2d(192, 192, kernel_size=(1, 1), stride=(1, 1))
            (proj_k): Conv2d(192, 192, kernel_size=(1, 1), stride=(1, 1))
            (proj_v): Conv2d(192, 192, kernel_size=(1, 1), stride=(1, 1))
            (proj_out): Conv2d(192, 192, kernel_size=(1, 1), stride=(1, 1))
            (unifyheads1): Conv2d(192, 192, kernel_size=(1, 1), stride=(1, 1))
            (conv_offset_q): Sequential(
              (0): Conv2d(96, 96, kernel_size=(7, 7), stride=(4, 4), padding=(3, 3), groups=96, bias=False)
              (1): LayerNormProxy(
                (norm): LayerNorm((96,), eps=1e-05, elementwise_affine=True)
              )
              (2): GELU()
              (3): Conv2d(96, 1, kernel_size=(1, 1), stride=(1, 1), bias=False)
            )
            (norm): LayerNorm((192,), eps=1e-06, elementwise_affine=True)
            (norm2): LayerNorm((192,), eps=1e-06, elementwise_affine=True)
            (mlp): TransformerMLPWithConv(
              (linear1): Sequential(
                (0): Conv2d(192, 576, kernel_size=(1, 1), stride=(1, 1))
              )
              (drop1): Dropout(p=0.0, inplace=True)
              (act): GELU()
              (linear2): Sequential(
                (0): Conv2d(576, 192, kernel_size=(1, 1), stride=(1, 1))
              )
              (drop2): Dropout(p=0.0, inplace=True)
              (dwc): Conv2d(576, 576, kernel_size=(3, 3), stride=(1, 1), padding=(1, 1), groups=576)
            )
          )
          (norm2): LayerNorm((192,), eps=1e-06, elementwise_affine=True)
          (mlp1): TransformerMLPWithConv(
            (linear1): Sequential(
              (0): Conv2d(192, 576, kernel_size=(1, 1), stride=(1, 1))
            )
            (drop1): Dropout(p=0.0, inplace=True)
            (act): GELU()
            (linear2): Sequential(
              (0): Conv2d(576, 192, kernel_size=(1, 1), stride=(1, 1))
            )
            (drop2): Dropout(p=0.0, inplace=True)
            (dwc): Conv2d(576, 576, kernel_size=(3, 3), stride=(1, 1), padding=(1, 1), groups=576)
          )
          (drop_path1): DropPath()
          (drop_path2): DropPath()
          (norm3): LayerNorm((192,), eps=1e-06, elementwise_affine=True)
          (norm4): LayerNorm((192,), eps=1e-06, elementwise_affine=True)
          (mlp2): TransformerMLPWithConv(
            (linear1): Sequential(
              (0): Conv2d(192, 576, kernel_size=(1, 1), stride=(1, 1))
            )
            (drop1): Dropout(p=0.0, inplace=True)
            (act): GELU()
            (linear2): Sequential(
              (0): Conv2d(576, 192, kernel_size=(1, 1), stride=(1, 1))
            )
            (drop2): Dropout(p=0.0, inplace=True)
            (dwc): Conv2d(576, 576, kernel_size=(3, 3), stride=(1, 1), padding=(1, 1), groups=576)
          )
        )
      )
      (2): Sequential(
        (0): Block(
          (pos_embed1): Conv2d(384, 384, kernel_size=(3, 3), stride=(1, 1), padding=(1, 1), groups=384)
          (pos_embed2): Conv2d(384, 384, kernel_size=(3, 3), stride=(1, 1), padding=(1, 1), groups=384)
          (norm1): LayerNorm((384,), eps=1e-06, elementwise_affine=True)
          (attn1): BiLevelRoutingAttention(
            (lepe): Conv2d(384, 384, kernel_size=(5, 5), stride=(1, 1), padding=(2, 2), groups=384)
            (router): TopkRouting(
              (emb): Identity()
              (routing_act): Softmax(dim=-1)
            )
            (kv_gather): KVGather()
            (qkv): QKVLinear(
              (qkv): Linear(in_features=384, out_features=1152, bias=True)
            )
            (wo): Linear(in_features=384, out_features=384, bias=True)
            (kv_down): Identity()
            (attn_act): Softmax(dim=-1)
          )
          (attn2): DeBiLevelRoutingAttention(
            (lepe1): Conv2d(384, 384, kernel_size=(5, 5), stride=(2, 2), padding=(2, 2), groups=384)
            (router): TopkRouting(
              (emb): Identity()
              (routing_act): Softmax(dim=-1)
            )
            (kv_gather): KVGather()
            (qkv_conv): QKVConv(
              (qkv): Conv2d(384, 1152, kernel_size=(1, 1), stride=(1, 1))
            )
            (kv_down): Identity()
            (attn_act): Softmax(dim=-1)
            (proj_q): Conv2d(384, 384, kernel_size=(1, 1), stride=(1, 1))
            (proj_k): Conv2d(384, 384, kernel_size=(1, 1), stride=(1, 1))
            (proj_v): Conv2d(384, 384, kernel_size=(1, 1), stride=(1, 1))
            (proj_out): Conv2d(384, 384, kernel_size=(1, 1), stride=(1, 1))
            (unifyheads1): Conv2d(384, 384, kernel_size=(1, 1), stride=(1, 1))
            (conv_offset_q): Sequential(
              (0): Conv2d(128, 128, kernel_size=(5, 5), stride=(2, 2), padding=(2, 2), groups=128, bias=False)
              (1): LayerNormProxy(
                (norm): LayerNorm((128,), eps=1e-05, elementwise_affine=True)
              )
              (2): GELU()
              (3): Conv2d(128, 1, kernel_size=(1, 1), stride=(1, 1), bias=False)
            )
            (norm): LayerNorm((384,), eps=1e-06, elementwise_affine=True)
            (norm2): LayerNorm((384,), eps=1e-06, elementwise_affine=True)
            (mlp): TransformerMLPWithConv(
              (linear1): Sequential(
                (0): Conv2d(384, 1152, kernel_size=(1, 1), stride=(1, 1))
              )
              (drop1): Dropout(p=0.0, inplace=True)
              (act): GELU()
              (linear2): Sequential(
                (0): Conv2d(1152, 384, kernel_size=(1, 1), stride=(1, 1))
              )
              (drop2): Dropout(p=0.0, inplace=True)
              (dwc): Conv2d(1152, 1152, kernel_size=(3, 3), stride=(1, 1), padding=(1, 1), groups=1152)
            )
          )
          (norm2): LayerNorm((384,), eps=1e-06, elementwise_affine=True)
          (mlp1): TransformerMLPWithConv(
            (linear1): Sequential(
              (0): Conv2d(384, 1152, kernel_size=(1, 1), stride=(1, 1))
            )
            (drop1): Dropout(p=0.0, inplace=True)
            (act): GELU()
            (linear2): Sequential(
              (0): Conv2d(1152, 384, kernel_size=(1, 1), stride=(1, 1))
            )
            (drop2): Dropout(p=0.0, inplace=True)
            (dwc): Conv2d(1152, 1152, kernel_size=(3, 3), stride=(1, 1), padding=(1, 1), groups=1152)
          )
          (drop_path1): DropPath()
          (drop_path2): DropPath()
          (norm3): LayerNorm((384,), eps=1e-06, elementwise_affine=True)
          (norm4): LayerNorm((384,), eps=1e-06, elementwise_affine=True)
          (mlp2): TransformerMLPWithConv(
            (linear1): Sequential(
              (0): Conv2d(384, 1152, kernel_size=(1, 1), stride=(1, 1))
            )
            (drop1): Dropout(p=0.0, inplace=True)
            (act): GELU()
            (linear2): Sequential(
              (0): Conv2d(1152, 384, kernel_size=(1, 1), stride=(1, 1))
            )
            (drop2): Dropout(p=0.0, inplace=True)
            (dwc): Conv2d(1152, 1152, kernel_size=(3, 3), stride=(1, 1), padding=(1, 1), groups=1152)
          )
        )
        (1): Block(
          (pos_embed1): Conv2d(384, 384, kernel_size=(3, 3), stride=(1, 1), padding=(1, 1), groups=384)
          (pos_embed2): Conv2d(384, 384, kernel_size=(3, 3), stride=(1, 1), padding=(1, 1), groups=384)
          (norm1): LayerNorm((384,), eps=1e-06, elementwise_affine=True)
          (attn1): BiLevelRoutingAttention(
            (lepe): Conv2d(384, 384, kernel_size=(5, 5), stride=(1, 1), padding=(2, 2), groups=384)
            (router): TopkRouting(
              (emb): Identity()
              (routing_act): Softmax(dim=-1)
            )
            (kv_gather): KVGather()
            (qkv): QKVLinear(
              (qkv): Linear(in_features=384, out_features=1152, bias=True)
            )
            (wo): Linear(in_features=384, out_features=384, bias=True)
            (kv_down): Identity()
            (attn_act): Softmax(dim=-1)
          )
          (attn2): DeBiLevelRoutingAttention(
            (lepe1): Conv2d(384, 384, kernel_size=(5, 5), stride=(2, 2), padding=(2, 2), groups=384)
            (router): TopkRouting(
              (emb): Identity()
              (routing_act): Softmax(dim=-1)
            )
            (kv_gather): KVGather()
            (qkv_conv): QKVConv(
              (qkv): Conv2d(384, 1152, kernel_size=(1, 1), stride=(1, 1))
            )
            (kv_down): Identity()
            (attn_act): Softmax(dim=-1)
            (proj_q): Conv2d(384, 384, kernel_size=(1, 1), stride=(1, 1))
            (proj_k): Conv2d(384, 384, kernel_size=(1, 1), stride=(1, 1))
            (proj_v): Conv2d(384, 384, kernel_size=(1, 1), stride=(1, 1))
            (proj_out): Conv2d(384, 384, kernel_size=(1, 1), stride=(1, 1))
            (unifyheads1): Conv2d(384, 384, kernel_size=(1, 1), stride=(1, 1))
            (conv_offset_q): Sequential(
              (0): Conv2d(128, 128, kernel_size=(5, 5), stride=(2, 2), padding=(2, 2), groups=128, bias=False)
              (1): LayerNormProxy(
                (norm): LayerNorm((128,), eps=1e-05, elementwise_affine=True)
              )
              (2): GELU()
              (3): Conv2d(128, 1, kernel_size=(1, 1), stride=(1, 1), bias=False)
            )
            (norm): LayerNorm((384,), eps=1e-06, elementwise_affine=True)
            (norm2): LayerNorm((384,), eps=1e-06, elementwise_affine=True)
            (mlp): TransformerMLPWithConv(
              (linear1): Sequential(
                (0): Conv2d(384, 1152, kernel_size=(1, 1), stride=(1, 1))
              )
              (drop1): Dropout(p=0.0, inplace=True)
              (act): GELU()
              (linear2): Sequential(
                (0): Conv2d(1152, 384, kernel_size=(1, 1), stride=(1, 1))
              )
              (drop2): Dropout(p=0.0, inplace=True)
              (dwc): Conv2d(1152, 1152, kernel_size=(3, 3), stride=(1, 1), padding=(1, 1), groups=1152)
            )
          )
          (norm2): LayerNorm((384,), eps=1e-06, elementwise_affine=True)
          (mlp1): TransformerMLPWithConv(
            (linear1): Sequential(
              (0): Conv2d(384, 1152, kernel_size=(1, 1), stride=(1, 1))
            )
            (drop1): Dropout(p=0.0, inplace=True)
            (act): GELU()
            (linear2): Sequential(
              (0): Conv2d(1152, 384, kernel_size=(1, 1), stride=(1, 1))
            )
            (drop2): Dropout(p=0.0, inplace=True)
            (dwc): Conv2d(1152, 1152, kernel_size=(3, 3), stride=(1, 1), padding=(1, 1), groups=1152)
          )
          (drop_path1): DropPath()
          (drop_path2): DropPath()
          (norm3): LayerNorm((384,), eps=1e-06, elementwise_affine=True)
          (norm4): LayerNorm((384,), eps=1e-06, elementwise_affine=True)
          (mlp2): TransformerMLPWithConv(
            (linear1): Sequential(
              (0): Conv2d(384, 1152, kernel_size=(1, 1), stride=(1, 1))
            )
            (drop1): Dropout(p=0.0, inplace=True)
            (act): GELU()
            (linear2): Sequential(
              (0): Conv2d(1152, 384, kernel_size=(1, 1), stride=(1, 1))
            )
            (drop2): Dropout(p=0.0, inplace=True)
            (dwc): Conv2d(1152, 1152, kernel_size=(3, 3), stride=(1, 1), padding=(1, 1), groups=1152)
          )
        )
        (2): Block(
          (pos_embed1): Conv2d(384, 384, kernel_size=(3, 3), stride=(1, 1), padding=(1, 1), groups=384)
          (pos_embed2): Conv2d(384, 384, kernel_size=(3, 3), stride=(1, 1), padding=(1, 1), groups=384)
          (norm1): LayerNorm((384,), eps=1e-06, elementwise_affine=True)
          (attn1): BiLevelRoutingAttention(
            (lepe): Conv2d(384, 384, kernel_size=(5, 5), stride=(1, 1), padding=(2, 2), groups=384)
            (router): TopkRouting(
              (emb): Identity()
              (routing_act): Softmax(dim=-1)
            )
            (kv_gather): KVGather()
            (qkv): QKVLinear(
              (qkv): Linear(in_features=384, out_features=1152, bias=True)
            )
            (wo): Linear(in_features=384, out_features=384, bias=True)
            (kv_down): Identity()
            (attn_act): Softmax(dim=-1)
          )
          (attn2): DeBiLevelRoutingAttention(
            (lepe1): Conv2d(384, 384, kernel_size=(5, 5), stride=(2, 2), padding=(2, 2), groups=384)
            (router): TopkRouting(
              (emb): Identity()
              (routing_act): Softmax(dim=-1)
            )
            (kv_gather): KVGather()
            (qkv_conv): QKVConv(
              (qkv): Conv2d(384, 1152, kernel_size=(1, 1), stride=(1, 1))
            )
            (kv_down): Identity()
            (attn_act): Softmax(dim=-1)
            (proj_q): Conv2d(384, 384, kernel_size=(1, 1), stride=(1, 1))
            (proj_k): Conv2d(384, 384, kernel_size=(1, 1), stride=(1, 1))
            (proj_v): Conv2d(384, 384, kernel_size=(1, 1), stride=(1, 1))
            (proj_out): Conv2d(384, 384, kernel_size=(1, 1), stride=(1, 1))
            (unifyheads1): Conv2d(384, 384, kernel_size=(1, 1), stride=(1, 1))
            (conv_offset_q): Sequential(
              (0): Conv2d(128, 128, kernel_size=(5, 5), stride=(2, 2), padding=(2, 2), groups=128, bias=False)
              (1): LayerNormProxy(
                (norm): LayerNorm((128,), eps=1e-05, elementwise_affine=True)
              )
              (2): GELU()
              (3): Conv2d(128, 1, kernel_size=(1, 1), stride=(1, 1), bias=False)
            )
            (norm): LayerNorm((384,), eps=1e-06, elementwise_affine=True)
            (norm2): LayerNorm((384,), eps=1e-06, elementwise_affine=True)
            (mlp): TransformerMLPWithConv(
              (linear1): Sequential(
                (0): Conv2d(384, 1152, kernel_size=(1, 1), stride=(1, 1))
              )
              (drop1): Dropout(p=0.0, inplace=True)
              (act): GELU()
              (linear2): Sequential(
                (0): Conv2d(1152, 384, kernel_size=(1, 1), stride=(1, 1))
              )
              (drop2): Dropout(p=0.0, inplace=True)
              (dwc): Conv2d(1152, 1152, kernel_size=(3, 3), stride=(1, 1), padding=(1, 1), groups=1152)
            )
          )
          (norm2): LayerNorm((384,), eps=1e-06, elementwise_affine=True)
          (mlp1): TransformerMLPWithConv(
            (linear1): Sequential(
              (0): Conv2d(384, 1152, kernel_size=(1, 1), stride=(1, 1))
            )
            (drop1): Dropout(p=0.0, inplace=True)
            (act): GELU()
            (linear2): Sequential(
              (0): Conv2d(1152, 384, kernel_size=(1, 1), stride=(1, 1))
            )
            (drop2): Dropout(p=0.0, inplace=True)
            (dwc): Conv2d(1152, 1152, kernel_size=(3, 3), stride=(1, 1), padding=(1, 1), groups=1152)
          )
          (drop_path1): DropPath()
          (drop_path2): DropPath()
          (norm3): LayerNorm((384,), eps=1e-06, elementwise_affine=True)
          (norm4): LayerNorm((384,), eps=1e-06, elementwise_affine=True)
          (mlp2): TransformerMLPWithConv(
            (linear1): Sequential(
              (0): Conv2d(384, 1152, kernel_size=(1, 1), stride=(1, 1))
            )
            (drop1): Dropout(p=0.0, inplace=True)
            (act): GELU()
            (linear2): Sequential(
              (0): Conv2d(1152, 384, kernel_size=(1, 1), stride=(1, 1))
            )
            (drop2): Dropout(p=0.0, inplace=True)
            (dwc): Conv2d(1152, 1152, kernel_size=(3, 3), stride=(1, 1), padding=(1, 1), groups=1152)
          )
        )
        (3): Block(
          (pos_embed1): Conv2d(384, 384, kernel_size=(3, 3), stride=(1, 1), padding=(1, 1), groups=384)
          (pos_embed2): Conv2d(384, 384, kernel_size=(3, 3), stride=(1, 1), padding=(1, 1), groups=384)
          (norm1): LayerNorm((384,), eps=1e-06, elementwise_affine=True)
          (attn1): BiLevelRoutingAttention(
            (lepe): Conv2d(384, 384, kernel_size=(5, 5), stride=(1, 1), padding=(2, 2), groups=384)
            (router): TopkRouting(
              (emb): Identity()
              (routing_act): Softmax(dim=-1)
            )
            (kv_gather): KVGather()
            (qkv): QKVLinear(
              (qkv): Linear(in_features=384, out_features=1152, bias=True)
            )
            (wo): Linear(in_features=384, out_features=384, bias=True)
            (kv_down): Identity()
            (attn_act): Softmax(dim=-1)
          )
          (attn2): DeBiLevelRoutingAttention(
            (lepe1): Conv2d(384, 384, kernel_size=(5, 5), stride=(2, 2), padding=(2, 2), groups=384)
            (router): TopkRouting(
              (emb): Identity()
              (routing_act): Softmax(dim=-1)
            )
            (kv_gather): KVGather()
            (qkv_conv): QKVConv(
              (qkv): Conv2d(384, 1152, kernel_size=(1, 1), stride=(1, 1))
            )
            (kv_down): Identity()
            (attn_act): Softmax(dim=-1)
            (proj_q): Conv2d(384, 384, kernel_size=(1, 1), stride=(1, 1))
            (proj_k): Conv2d(384, 384, kernel_size=(1, 1), stride=(1, 1))
            (proj_v): Conv2d(384, 384, kernel_size=(1, 1), stride=(1, 1))
            (proj_out): Conv2d(384, 384, kernel_size=(1, 1), stride=(1, 1))
            (unifyheads1): Conv2d(384, 384, kernel_size=(1, 1), stride=(1, 1))
            (conv_offset_q): Sequential(
              (0): Conv2d(128, 128, kernel_size=(5, 5), stride=(2, 2), padding=(2, 2), groups=128, bias=False)
              (1): LayerNormProxy(
                (norm): LayerNorm((128,), eps=1e-05, elementwise_affine=True)
              )
              (2): GELU()
              (3): Conv2d(128, 1, kernel_size=(1, 1), stride=(1, 1), bias=False)
            )
            (norm): LayerNorm((384,), eps=1e-06, elementwise_affine=True)
            (norm2): LayerNorm((384,), eps=1e-06, elementwise_affine=True)
            (mlp): TransformerMLPWithConv(
              (linear1): Sequential(
                (0): Conv2d(384, 1152, kernel_size=(1, 1), stride=(1, 1))
              )
              (drop1): Dropout(p=0.0, inplace=True)
              (act): GELU()
              (linear2): Sequential(
                (0): Conv2d(1152, 384, kernel_size=(1, 1), stride=(1, 1))
              )
              (drop2): Dropout(p=0.0, inplace=True)
              (dwc): Conv2d(1152, 1152, kernel_size=(3, 3), stride=(1, 1), padding=(1, 1), groups=1152)
            )
          )
          (norm2): LayerNorm((384,), eps=1e-06, elementwise_affine=True)
          (mlp1): TransformerMLPWithConv(
            (linear1): Sequential(
              (0): Conv2d(384, 1152, kernel_size=(1, 1), stride=(1, 1))
            )
            (drop1): Dropout(p=0.0, inplace=True)
            (act): GELU()
            (linear2): Sequential(
              (0): Conv2d(1152, 384, kernel_size=(1, 1), stride=(1, 1))
            )
            (drop2): Dropout(p=0.0, inplace=True)
            (dwc): Conv2d(1152, 1152, kernel_size=(3, 3), stride=(1, 1), padding=(1, 1), groups=1152)
          )
          (drop_path1): DropPath()
          (drop_path2): DropPath()
          (norm3): LayerNorm((384,), eps=1e-06, elementwise_affine=True)
          (norm4): LayerNorm((384,), eps=1e-06, elementwise_affine=True)
          (mlp2): TransformerMLPWithConv(
            (linear1): Sequential(
              (0): Conv2d(384, 1152, kernel_size=(1, 1), stride=(1, 1))
            )
            (drop1): Dropout(p=0.0, inplace=True)
            (act): GELU()
            (linear2): Sequential(
              (0): Conv2d(1152, 384, kernel_size=(1, 1), stride=(1, 1))
            )
            (drop2): Dropout(p=0.0, inplace=True)
            (dwc): Conv2d(1152, 1152, kernel_size=(3, 3), stride=(1, 1), padding=(1, 1), groups=1152)
          )
        )
        (4): Block(
          (pos_embed1): Conv2d(384, 384, kernel_size=(3, 3), stride=(1, 1), padding=(1, 1), groups=384)
          (pos_embed2): Conv2d(384, 384, kernel_size=(3, 3), stride=(1, 1), padding=(1, 1), groups=384)
          (norm1): LayerNorm((384,), eps=1e-06, elementwise_affine=True)
          (attn1): BiLevelRoutingAttention(
            (lepe): Conv2d(384, 384, kernel_size=(5, 5), stride=(1, 1), padding=(2, 2), groups=384)
            (router): TopkRouting(
              (emb): Identity()
              (routing_act): Softmax(dim=-1)
            )
            (kv_gather): KVGather()
            (qkv): QKVLinear(
              (qkv): Linear(in_features=384, out_features=1152, bias=True)
            )
            (wo): Linear(in_features=384, out_features=384, bias=True)
            (kv_down): Identity()
            (attn_act): Softmax(dim=-1)
          )
          (attn2): DeBiLevelRoutingAttention(
            (lepe1): Conv2d(384, 384, kernel_size=(5, 5), stride=(2, 2), padding=(2, 2), groups=384)
            (router): TopkRouting(
              (emb): Identity()
              (routing_act): Softmax(dim=-1)
            )
            (kv_gather): KVGather()
            (qkv_conv): QKVConv(
              (qkv): Conv2d(384, 1152, kernel_size=(1, 1), stride=(1, 1))
            )
            (kv_down): Identity()
            (attn_act): Softmax(dim=-1)
            (proj_q): Conv2d(384, 384, kernel_size=(1, 1), stride=(1, 1))
            (proj_k): Conv2d(384, 384, kernel_size=(1, 1), stride=(1, 1))
            (proj_v): Conv2d(384, 384, kernel_size=(1, 1), stride=(1, 1))
            (proj_out): Conv2d(384, 384, kernel_size=(1, 1), stride=(1, 1))
            (unifyheads1): Conv2d(384, 384, kernel_size=(1, 1), stride=(1, 1))
            (conv_offset_q): Sequential(
              (0): Conv2d(128, 128, kernel_size=(5, 5), stride=(2, 2), padding=(2, 2), groups=128, bias=False)
              (1): LayerNormProxy(
                (norm): LayerNorm((128,), eps=1e-05, elementwise_affine=True)
              )
              (2): GELU()
              (3): Conv2d(128, 1, kernel_size=(1, 1), stride=(1, 1), bias=False)
            )
            (norm): LayerNorm((384,), eps=1e-06, elementwise_affine=True)
            (norm2): LayerNorm((384,), eps=1e-06, elementwise_affine=True)
            (mlp): TransformerMLPWithConv(
              (linear1): Sequential(
                (0): Conv2d(384, 1152, kernel_size=(1, 1), stride=(1, 1))
              )
              (drop1): Dropout(p=0.0, inplace=True)
              (act): GELU()
              (linear2): Sequential(
                (0): Conv2d(1152, 384, kernel_size=(1, 1), stride=(1, 1))
              )
              (drop2): Dropout(p=0.0, inplace=True)
              (dwc): Conv2d(1152, 1152, kernel_size=(3, 3), stride=(1, 1), padding=(1, 1), groups=1152)
            )
          )
          (norm2): LayerNorm((384,), eps=1e-06, elementwise_affine=True)
          (mlp1): TransformerMLPWithConv(
            (linear1): Sequential(
              (0): Conv2d(384, 1152, kernel_size=(1, 1), stride=(1, 1))
            )
            (drop1): Dropout(p=0.0, inplace=True)
            (act): GELU()
            (linear2): Sequential(
              (0): Conv2d(1152, 384, kernel_size=(1, 1), stride=(1, 1))
            )
            (drop2): Dropout(p=0.0, inplace=True)
            (dwc): Conv2d(1152, 1152, kernel_size=(3, 3), stride=(1, 1), padding=(1, 1), groups=1152)
          )
          (drop_path1): DropPath()
          (drop_path2): DropPath()
          (norm3): LayerNorm((384,), eps=1e-06, elementwise_affine=True)
          (norm4): LayerNorm((384,), eps=1e-06, elementwise_affine=True)
          (mlp2): TransformerMLPWithConv(
            (linear1): Sequential(
              (0): Conv2d(384, 1152, kernel_size=(1, 1), stride=(1, 1))
            )
            (drop1): Dropout(p=0.0, inplace=True)
            (act): GELU()
            (linear2): Sequential(
              (0): Conv2d(1152, 384, kernel_size=(1, 1), stride=(1, 1))
            )
            (drop2): Dropout(p=0.0, inplace=True)
            (dwc): Conv2d(1152, 1152, kernel_size=(3, 3), stride=(1, 1), padding=(1, 1), groups=1152)
          )
        )
        (5): Block(
          (pos_embed1): Conv2d(384, 384, kernel_size=(3, 3), stride=(1, 1), padding=(1, 1), groups=384)
          (pos_embed2): Conv2d(384, 384, kernel_size=(3, 3), stride=(1, 1), padding=(1, 1), groups=384)
          (norm1): LayerNorm((384,), eps=1e-06, elementwise_affine=True)
          (attn1): BiLevelRoutingAttention(
            (lepe): Conv2d(384, 384, kernel_size=(5, 5), stride=(1, 1), padding=(2, 2), groups=384)
            (router): TopkRouting(
              (emb): Identity()
              (routing_act): Softmax(dim=-1)
            )
            (kv_gather): KVGather()
            (qkv): QKVLinear(
              (qkv): Linear(in_features=384, out_features=1152, bias=True)
            )
            (wo): Linear(in_features=384, out_features=384, bias=True)
            (kv_down): Identity()
            (attn_act): Softmax(dim=-1)
          )
          (attn2): DeBiLevelRoutingAttention(
            (lepe1): Conv2d(384, 384, kernel_size=(5, 5), stride=(2, 2), padding=(2, 2), groups=384)
            (router): TopkRouting(
              (emb): Identity()
              (routing_act): Softmax(dim=-1)
            )
            (kv_gather): KVGather()
            (qkv_conv): QKVConv(
              (qkv): Conv2d(384, 1152, kernel_size=(1, 1), stride=(1, 1))
            )
            (kv_down): Identity()
            (attn_act): Softmax(dim=-1)
            (proj_q): Conv2d(384, 384, kernel_size=(1, 1), stride=(1, 1))
            (proj_k): Conv2d(384, 384, kernel_size=(1, 1), stride=(1, 1))
            (proj_v): Conv2d(384, 384, kernel_size=(1, 1), stride=(1, 1))
            (proj_out): Conv2d(384, 384, kernel_size=(1, 1), stride=(1, 1))
            (unifyheads1): Conv2d(384, 384, kernel_size=(1, 1), stride=(1, 1))
            (conv_offset_q): Sequential(
              (0): Conv2d(128, 128, kernel_size=(5, 5), stride=(2, 2), padding=(2, 2), groups=128, bias=False)
              (1): LayerNormProxy(
                (norm): LayerNorm((128,), eps=1e-05, elementwise_affine=True)
              )
              (2): GELU()
              (3): Conv2d(128, 1, kernel_size=(1, 1), stride=(1, 1), bias=False)
            )
            (norm): LayerNorm((384,), eps=1e-06, elementwise_affine=True)
            (norm2): LayerNorm((384,), eps=1e-06, elementwise_affine=True)
            (mlp): TransformerMLPWithConv(
              (linear1): Sequential(
                (0): Conv2d(384, 1152, kernel_size=(1, 1), stride=(1, 1))
              )
              (drop1): Dropout(p=0.0, inplace=True)
              (act): GELU()
              (linear2): Sequential(
                (0): Conv2d(1152, 384, kernel_size=(1, 1), stride=(1, 1))
              )
              (drop2): Dropout(p=0.0, inplace=True)
              (dwc): Conv2d(1152, 1152, kernel_size=(3, 3), stride=(1, 1), padding=(1, 1), groups=1152)
            )
          )
          (norm2): LayerNorm((384,), eps=1e-06, elementwise_affine=True)
          (mlp1): TransformerMLPWithConv(
            (linear1): Sequential(
              (0): Conv2d(384, 1152, kernel_size=(1, 1), stride=(1, 1))
            )
            (drop1): Dropout(p=0.0, inplace=True)
            (act): GELU()
            (linear2): Sequential(
              (0): Conv2d(1152, 384, kernel_size=(1, 1), stride=(1, 1))
            )
            (drop2): Dropout(p=0.0, inplace=True)
            (dwc): Conv2d(1152, 1152, kernel_size=(3, 3), stride=(1, 1), padding=(1, 1), groups=1152)
          )
          (drop_path1): DropPath()
          (drop_path2): DropPath()
          (norm3): LayerNorm((384,), eps=1e-06, elementwise_affine=True)
          (norm4): LayerNorm((384,), eps=1e-06, elementwise_affine=True)
          (mlp2): TransformerMLPWithConv(
            (linear1): Sequential(
              (0): Conv2d(384, 1152, kernel_size=(1, 1), stride=(1, 1))
            )
            (drop1): Dropout(p=0.0, inplace=True)
            (act): GELU()
            (linear2): Sequential(
              (0): Conv2d(1152, 384, kernel_size=(1, 1), stride=(1, 1))
            )
            (drop2): Dropout(p=0.0, inplace=True)
            (dwc): Conv2d(1152, 1152, kernel_size=(3, 3), stride=(1, 1), padding=(1, 1), groups=1152)
          )
        )
        (6): Block(
          (pos_embed1): Conv2d(384, 384, kernel_size=(3, 3), stride=(1, 1), padding=(1, 1), groups=384)
          (pos_embed2): Conv2d(384, 384, kernel_size=(3, 3), stride=(1, 1), padding=(1, 1), groups=384)
          (norm1): LayerNorm((384,), eps=1e-06, elementwise_affine=True)
          (attn1): BiLevelRoutingAttention(
            (lepe): Conv2d(384, 384, kernel_size=(5, 5), stride=(1, 1), padding=(2, 2), groups=384)
            (router): TopkRouting(
              (emb): Identity()
              (routing_act): Softmax(dim=-1)
            )
            (kv_gather): KVGather()
            (qkv): QKVLinear(
              (qkv): Linear(in_features=384, out_features=1152, bias=True)
            )
            (wo): Linear(in_features=384, out_features=384, bias=True)
            (kv_down): Identity()
            (attn_act): Softmax(dim=-1)
          )
          (attn2): DeBiLevelRoutingAttention(
            (lepe1): Conv2d(384, 384, kernel_size=(5, 5), stride=(2, 2), padding=(2, 2), groups=384)
            (router): TopkRouting(
              (emb): Identity()
              (routing_act): Softmax(dim=-1)
            )
            (kv_gather): KVGather()
            (qkv_conv): QKVConv(
              (qkv): Conv2d(384, 1152, kernel_size=(1, 1), stride=(1, 1))
            )
            (kv_down): Identity()
            (attn_act): Softmax(dim=-1)
            (proj_q): Conv2d(384, 384, kernel_size=(1, 1), stride=(1, 1))
            (proj_k): Conv2d(384, 384, kernel_size=(1, 1), stride=(1, 1))
            (proj_v): Conv2d(384, 384, kernel_size=(1, 1), stride=(1, 1))
            (proj_out): Conv2d(384, 384, kernel_size=(1, 1), stride=(1, 1))
            (unifyheads1): Conv2d(384, 384, kernel_size=(1, 1), stride=(1, 1))
            (conv_offset_q): Sequential(
              (0): Conv2d(128, 128, kernel_size=(5, 5), stride=(2, 2), padding=(2, 2), groups=128, bias=False)
              (1): LayerNormProxy(
                (norm): LayerNorm((128,), eps=1e-05, elementwise_affine=True)
              )
              (2): GELU()
              (3): Conv2d(128, 1, kernel_size=(1, 1), stride=(1, 1), bias=False)
            )
            (norm): LayerNorm((384,), eps=1e-06, elementwise_affine=True)
            (norm2): LayerNorm((384,), eps=1e-06, elementwise_affine=True)
            (mlp): TransformerMLPWithConv(
              (linear1): Sequential(
                (0): Conv2d(384, 1152, kernel_size=(1, 1), stride=(1, 1))
              )
              (drop1): Dropout(p=0.0, inplace=True)
              (act): GELU()
              (linear2): Sequential(
                (0): Conv2d(1152, 384, kernel_size=(1, 1), stride=(1, 1))
              )
              (drop2): Dropout(p=0.0, inplace=True)
              (dwc): Conv2d(1152, 1152, kernel_size=(3, 3), stride=(1, 1), padding=(1, 1), groups=1152)
            )
          )
          (norm2): LayerNorm((384,), eps=1e-06, elementwise_affine=True)
          (mlp1): TransformerMLPWithConv(
            (linear1): Sequential(
              (0): Conv2d(384, 1152, kernel_size=(1, 1), stride=(1, 1))
            )
            (drop1): Dropout(p=0.0, inplace=True)
            (act): GELU()
            (linear2): Sequential(
              (0): Conv2d(1152, 384, kernel_size=(1, 1), stride=(1, 1))
            )
            (drop2): Dropout(p=0.0, inplace=True)
            (dwc): Conv2d(1152, 1152, kernel_size=(3, 3), stride=(1, 1), padding=(1, 1), groups=1152)
          )
          (drop_path1): DropPath()
          (drop_path2): DropPath()
          (norm3): LayerNorm((384,), eps=1e-06, elementwise_affine=True)
          (norm4): LayerNorm((384,), eps=1e-06, elementwise_affine=True)
          (mlp2): TransformerMLPWithConv(
            (linear1): Sequential(
              (0): Conv2d(384, 1152, kernel_size=(1, 1), stride=(1, 1))
            )
            (drop1): Dropout(p=0.0, inplace=True)
            (act): GELU()
            (linear2): Sequential(
              (0): Conv2d(1152, 384, kernel_size=(1, 1), stride=(1, 1))
            )
            (drop2): Dropout(p=0.0, inplace=True)
            (dwc): Conv2d(1152, 1152, kernel_size=(3, 3), stride=(1, 1), padding=(1, 1), groups=1152)
          )
        )
        (7): Block(
          (pos_embed1): Conv2d(384, 384, kernel_size=(3, 3), stride=(1, 1), padding=(1, 1), groups=384)
          (pos_embed2): Conv2d(384, 384, kernel_size=(3, 3), stride=(1, 1), padding=(1, 1), groups=384)
          (norm1): LayerNorm((384,), eps=1e-06, elementwise_affine=True)
          (attn1): BiLevelRoutingAttention(
            (lepe): Conv2d(384, 384, kernel_size=(5, 5), stride=(1, 1), padding=(2, 2), groups=384)
            (router): TopkRouting(
              (emb): Identity()
              (routing_act): Softmax(dim=-1)
            )
            (kv_gather): KVGather()
            (qkv): QKVLinear(
              (qkv): Linear(in_features=384, out_features=1152, bias=True)
            )
            (wo): Linear(in_features=384, out_features=384, bias=True)
            (kv_down): Identity()
            (attn_act): Softmax(dim=-1)
          )
          (attn2): DeBiLevelRoutingAttention(
            (lepe1): Conv2d(384, 384, kernel_size=(5, 5), stride=(2, 2), padding=(2, 2), groups=384)
            (router): TopkRouting(
              (emb): Identity()
              (routing_act): Softmax(dim=-1)
            )
            (kv_gather): KVGather()
            (qkv_conv): QKVConv(
              (qkv): Conv2d(384, 1152, kernel_size=(1, 1), stride=(1, 1))
            )
            (kv_down): Identity()
            (attn_act): Softmax(dim=-1)
            (proj_q): Conv2d(384, 384, kernel_size=(1, 1), stride=(1, 1))
            (proj_k): Conv2d(384, 384, kernel_size=(1, 1), stride=(1, 1))
            (proj_v): Conv2d(384, 384, kernel_size=(1, 1), stride=(1, 1))
            (proj_out): Conv2d(384, 384, kernel_size=(1, 1), stride=(1, 1))
            (unifyheads1): Conv2d(384, 384, kernel_size=(1, 1), stride=(1, 1))
            (conv_offset_q): Sequential(
              (0): Conv2d(128, 128, kernel_size=(5, 5), stride=(2, 2), padding=(2, 2), groups=128, bias=False)
              (1): LayerNormProxy(
                (norm): LayerNorm((128,), eps=1e-05, elementwise_affine=True)
              )
              (2): GELU()
              (3): Conv2d(128, 1, kernel_size=(1, 1), stride=(1, 1), bias=False)
            )
            (norm): LayerNorm((384,), eps=1e-06, elementwise_affine=True)
            (norm2): LayerNorm((384,), eps=1e-06, elementwise_affine=True)
            (mlp): TransformerMLPWithConv(
              (linear1): Sequential(
                (0): Conv2d(384, 1152, kernel_size=(1, 1), stride=(1, 1))
              )
              (drop1): Dropout(p=0.0, inplace=True)
              (act): GELU()
              (linear2): Sequential(
                (0): Conv2d(1152, 384, kernel_size=(1, 1), stride=(1, 1))
              )
              (drop2): Dropout(p=0.0, inplace=True)
              (dwc): Conv2d(1152, 1152, kernel_size=(3, 3), stride=(1, 1), padding=(1, 1), groups=1152)
            )
          )
          (norm2): LayerNorm((384,), eps=1e-06, elementwise_affine=True)
          (mlp1): TransformerMLPWithConv(
            (linear1): Sequential(
              (0): Conv2d(384, 1152, kernel_size=(1, 1), stride=(1, 1))
            )
            (drop1): Dropout(p=0.0, inplace=True)
            (act): GELU()
            (linear2): Sequential(
              (0): Conv2d(1152, 384, kernel_size=(1, 1), stride=(1, 1))
            )
            (drop2): Dropout(p=0.0, inplace=True)
            (dwc): Conv2d(1152, 1152, kernel_size=(3, 3), stride=(1, 1), padding=(1, 1), groups=1152)
          )
          (drop_path1): DropPath()
          (drop_path2): DropPath()
          (norm3): LayerNorm((384,), eps=1e-06, elementwise_affine=True)
          (norm4): LayerNorm((384,), eps=1e-06, elementwise_affine=True)
          (mlp2): TransformerMLPWithConv(
            (linear1): Sequential(
              (0): Conv2d(384, 1152, kernel_size=(1, 1), stride=(1, 1))
            )
            (drop1): Dropout(p=0.0, inplace=True)
            (act): GELU()
            (linear2): Sequential(
              (0): Conv2d(1152, 384, kernel_size=(1, 1), stride=(1, 1))
            )
            (drop2): Dropout(p=0.0, inplace=True)
            (dwc): Conv2d(1152, 1152, kernel_size=(3, 3), stride=(1, 1), padding=(1, 1), groups=1152)
          )
        )
        (8): Block(
          (pos_embed1): Conv2d(384, 384, kernel_size=(3, 3), stride=(1, 1), padding=(1, 1), groups=384)
          (pos_embed2): Conv2d(384, 384, kernel_size=(3, 3), stride=(1, 1), padding=(1, 1), groups=384)
          (norm1): LayerNorm((384,), eps=1e-06, elementwise_affine=True)
          (attn1): BiLevelRoutingAttention(
            (lepe): Conv2d(384, 384, kernel_size=(5, 5), stride=(1, 1), padding=(2, 2), groups=384)
            (router): TopkRouting(
              (emb): Identity()
              (routing_act): Softmax(dim=-1)
            )
            (kv_gather): KVGather()
            (qkv): QKVLinear(
              (qkv): Linear(in_features=384, out_features=1152, bias=True)
            )
            (wo): Linear(in_features=384, out_features=384, bias=True)
            (kv_down): Identity()
            (attn_act): Softmax(dim=-1)
          )
          (attn2): DeBiLevelRoutingAttention(
            (lepe1): Conv2d(384, 384, kernel_size=(5, 5), stride=(2, 2), padding=(2, 2), groups=384)
            (router): TopkRouting(
              (emb): Identity()
              (routing_act): Softmax(dim=-1)
            )
            (kv_gather): KVGather()
            (qkv_conv): QKVConv(
              (qkv): Conv2d(384, 1152, kernel_size=(1, 1), stride=(1, 1))
            )
            (kv_down): Identity()
            (attn_act): Softmax(dim=-1)
            (proj_q): Conv2d(384, 384, kernel_size=(1, 1), stride=(1, 1))
            (proj_k): Conv2d(384, 384, kernel_size=(1, 1), stride=(1, 1))
            (proj_v): Conv2d(384, 384, kernel_size=(1, 1), stride=(1, 1))
            (proj_out): Conv2d(384, 384, kernel_size=(1, 1), stride=(1, 1))
            (unifyheads1): Conv2d(384, 384, kernel_size=(1, 1), stride=(1, 1))
            (conv_offset_q): Sequential(
              (0): Conv2d(128, 128, kernel_size=(5, 5), stride=(2, 2), padding=(2, 2), groups=128, bias=False)
              (1): LayerNormProxy(
                (norm): LayerNorm((128,), eps=1e-05, elementwise_affine=True)
              )
              (2): GELU()
              (3): Conv2d(128, 1, kernel_size=(1, 1), stride=(1, 1), bias=False)
            )
            (norm): LayerNorm((384,), eps=1e-06, elementwise_affine=True)
            (norm2): LayerNorm((384,), eps=1e-06, elementwise_affine=True)
            (mlp): TransformerMLPWithConv(
              (linear1): Sequential(
                (0): Conv2d(384, 1152, kernel_size=(1, 1), stride=(1, 1))
              )
              (drop1): Dropout(p=0.0, inplace=True)
              (act): GELU()
              (linear2): Sequential(
                (0): Conv2d(1152, 384, kernel_size=(1, 1), stride=(1, 1))
              )
              (drop2): Dropout(p=0.0, inplace=True)
              (dwc): Conv2d(1152, 1152, kernel_size=(3, 3), stride=(1, 1), padding=(1, 1), groups=1152)
            )
          )
          (norm2): LayerNorm((384,), eps=1e-06, elementwise_affine=True)
          (mlp1): TransformerMLPWithConv(
            (linear1): Sequential(
              (0): Conv2d(384, 1152, kernel_size=(1, 1), stride=(1, 1))
            )
            (drop1): Dropout(p=0.0, inplace=True)
            (act): GELU()
            (linear2): Sequential(
              (0): Conv2d(1152, 384, kernel_size=(1, 1), stride=(1, 1))
            )
            (drop2): Dropout(p=0.0, inplace=True)
            (dwc): Conv2d(1152, 1152, kernel_size=(3, 3), stride=(1, 1), padding=(1, 1), groups=1152)
          )
          (drop_path1): DropPath()
          (drop_path2): DropPath()
          (norm3): LayerNorm((384,), eps=1e-06, elementwise_affine=True)
          (norm4): LayerNorm((384,), eps=1e-06, elementwise_affine=True)
          (mlp2): TransformerMLPWithConv(
            (linear1): Sequential(
              (0): Conv2d(384, 1152, kernel_size=(1, 1), stride=(1, 1))
            )
            (drop1): Dropout(p=0.0, inplace=True)
            (act): GELU()
            (linear2): Sequential(
              (0): Conv2d(1152, 384, kernel_size=(1, 1), stride=(1, 1))
            )
            (drop2): Dropout(p=0.0, inplace=True)
            (dwc): Conv2d(1152, 1152, kernel_size=(3, 3), stride=(1, 1), padding=(1, 1), groups=1152)
          )
        )
      )
      (3): Sequential(
        (0): Block(
          (pos_embed1): Conv2d(768, 768, kernel_size=(3, 3), stride=(1, 1), padding=(1, 1), groups=768)
          (pos_embed2): Conv2d(768, 768, kernel_size=(3, 3), stride=(1, 1), padding=(1, 1), groups=768)
          (norm1): LayerNorm((768,), eps=1e-06, elementwise_affine=True)
          (attn1): DeBiLevelRoutingAttention(
            (lepe1): Conv2d(768, 768, kernel_size=(5, 5), stride=(1, 1), padding=(2, 2), groups=768)
            (router): TopkRouting(
              (emb): Identity()
              (routing_act): Softmax(dim=-1)
            )
            (kv_gather): KVGather()
            (qkv_conv): QKVConv(
              (qkv): Conv2d(768, 2304, kernel_size=(1, 1), stride=(1, 1))
            )
            (kv_down): Identity()
            (attn_act): Softmax(dim=-1)
            (proj_q): Conv2d(768, 768, kernel_size=(1, 1), stride=(1, 1))
            (proj_k): Conv2d(768, 768, kernel_size=(1, 1), stride=(1, 1))
            (proj_v): Conv2d(768, 768, kernel_size=(1, 1), stride=(1, 1))
            (proj_out): Conv2d(768, 768, kernel_size=(1, 1), stride=(1, 1))
            (unifyheads1): Conv2d(768, 768, kernel_size=(1, 1), stride=(1, 1))
            (conv_offset_q): Sequential(
              (0): Conv2d(128, 128, kernel_size=(3, 3), stride=(1, 1), padding=(1, 1), groups=128, bias=False)
              (1): LayerNormProxy(
                (norm): LayerNorm((128,), eps=1e-05, elementwise_affine=True)
              )
              (2): GELU()
              (3): Conv2d(128, 1, kernel_size=(1, 1), stride=(1, 1), bias=False)
            )
            (norm): LayerNorm((768,), eps=1e-06, elementwise_affine=True)
            (norm2): LayerNorm((768,), eps=1e-06, elementwise_affine=True)
            (mlp): TransformerMLPWithConv(
              (linear1): Sequential(
                (0): Conv2d(768, 2304, kernel_size=(1, 1), stride=(1, 1))
              )
              (drop1): Dropout(p=0.0, inplace=True)
              (act): GELU()
              (linear2): Sequential(
                (0): Conv2d(2304, 768, kernel_size=(1, 1), stride=(1, 1))
              )
              (drop2): Dropout(p=0.0, inplace=True)
              (dwc): Conv2d(2304, 2304, kernel_size=(3, 3), stride=(1, 1), padding=(1, 1), groups=2304)
            )
          )
          (attn2): DeBiLevelRoutingAttention(
            (lepe1): Conv2d(768, 768, kernel_size=(5, 5), stride=(1, 1), padding=(2, 2), groups=768)
            (router): TopkRouting(
              (emb): Identity()
              (routing_act): Softmax(dim=-1)
            )
            (kv_gather): KVGather()
            (qkv_conv): QKVConv(
              (qkv): Conv2d(768, 2304, kernel_size=(1, 1), stride=(1, 1))
            )
            (kv_down): Identity()
            (attn_act): Softmax(dim=-1)
            (proj_q): Conv2d(768, 768, kernel_size=(1, 1), stride=(1, 1))
            (proj_k): Conv2d(768, 768, kernel_size=(1, 1), stride=(1, 1))
            (proj_v): Conv2d(768, 768, kernel_size=(1, 1), stride=(1, 1))
            (proj_out): Conv2d(768, 768, kernel_size=(1, 1), stride=(1, 1))
            (unifyheads1): Conv2d(768, 768, kernel_size=(1, 1), stride=(1, 1))
            (conv_offset_q): Sequential(
              (0): Conv2d(128, 128, kernel_size=(3, 3), stride=(1, 1), padding=(1, 1), groups=128, bias=False)
              (1): LayerNormProxy(
                (norm): LayerNorm((128,), eps=1e-05, elementwise_affine=True)
              )
              (2): GELU()
              (3): Conv2d(128, 1, kernel_size=(1, 1), stride=(1, 1), bias=False)
            )
            (norm): LayerNorm((768,), eps=1e-06, elementwise_affine=True)
            (norm2): LayerNorm((768,), eps=1e-06, elementwise_affine=True)
            (mlp): TransformerMLPWithConv(
              (linear1): Sequential(
                (0): Conv2d(768, 2304, kernel_size=(1, 1), stride=(1, 1))
              )
              (drop1): Dropout(p=0.0, inplace=True)
              (act): GELU()
              (linear2): Sequential(
                (0): Conv2d(2304, 768, kernel_size=(1, 1), stride=(1, 1))
              )
              (drop2): Dropout(p=0.0, inplace=True)
              (dwc): Conv2d(2304, 2304, kernel_size=(3, 3), stride=(1, 1), padding=(1, 1), groups=2304)
            )
          )
          (norm2): LayerNorm((768,), eps=1e-06, elementwise_affine=True)
          (mlp1): TransformerMLPWithConv(
            (linear1): Sequential(
              (0): Conv2d(768, 2304, kernel_size=(1, 1), stride=(1, 1))
            )
            (drop1): Dropout(p=0.0, inplace=True)
            (act): GELU()
            (linear2): Sequential(
              (0): Conv2d(2304, 768, kernel_size=(1, 1), stride=(1, 1))
            )
            (drop2): Dropout(p=0.0, inplace=True)
            (dwc): Conv2d(2304, 2304, kernel_size=(3, 3), stride=(1, 1), padding=(1, 1), groups=2304)
          )
          (drop_path1): DropPath()
          (drop_path2): DropPath()
          (norm3): LayerNorm((768,), eps=1e-06, elementwise_affine=True)
          (norm4): LayerNorm((768,), eps=1e-06, elementwise_affine=True)
          (mlp2): TransformerMLPWithConv(
            (linear1): Sequential(
              (0): Conv2d(768, 2304, kernel_size=(1, 1), stride=(1, 1))
            )
            (drop1): Dropout(p=0.0, inplace=True)
            (act): GELU()
            (linear2): Sequential(
              (0): Conv2d(2304, 768, kernel_size=(1, 1), stride=(1, 1))
            )
            (drop2): Dropout(p=0.0, inplace=True)
            (dwc): Conv2d(2304, 2304, kernel_size=(3, 3), stride=(1, 1), padding=(1, 1), groups=2304)
          )
        )
        (1): Block(
          (pos_embed1): Conv2d(768, 768, kernel_size=(3, 3), stride=(1, 1), padding=(1, 1), groups=768)
          (pos_embed2): Conv2d(768, 768, kernel_size=(3, 3), stride=(1, 1), padding=(1, 1), groups=768)
          (norm1): LayerNorm((768,), eps=1e-06, elementwise_affine=True)
          (attn1): DeBiLevelRoutingAttention(
            (lepe1): Conv2d(768, 768, kernel_size=(5, 5), stride=(1, 1), padding=(2, 2), groups=768)
            (router): TopkRouting(
              (emb): Identity()
              (routing_act): Softmax(dim=-1)
            )
            (kv_gather): KVGather()
            (qkv_conv): QKVConv(
              (qkv): Conv2d(768, 2304, kernel_size=(1, 1), stride=(1, 1))
            )
            (kv_down): Identity()
            (attn_act): Softmax(dim=-1)
            (proj_q): Conv2d(768, 768, kernel_size=(1, 1), stride=(1, 1))
            (proj_k): Conv2d(768, 768, kernel_size=(1, 1), stride=(1, 1))
            (proj_v): Conv2d(768, 768, kernel_size=(1, 1), stride=(1, 1))
            (proj_out): Conv2d(768, 768, kernel_size=(1, 1), stride=(1, 1))
            (unifyheads1): Conv2d(768, 768, kernel_size=(1, 1), stride=(1, 1))
            (conv_offset_q): Sequential(
              (0): Conv2d(128, 128, kernel_size=(3, 3), stride=(1, 1), padding=(1, 1), groups=128, bias=False)
              (1): LayerNormProxy(
                (norm): LayerNorm((128,), eps=1e-05, elementwise_affine=True)
              )
              (2): GELU()
              (3): Conv2d(128, 1, kernel_size=(1, 1), stride=(1, 1), bias=False)
            )
            (norm): LayerNorm((768,), eps=1e-06, elementwise_affine=True)
            (norm2): LayerNorm((768,), eps=1e-06, elementwise_affine=True)
            (mlp): TransformerMLPWithConv(
              (linear1): Sequential(
                (0): Conv2d(768, 2304, kernel_size=(1, 1), stride=(1, 1))
              )
              (drop1): Dropout(p=0.0, inplace=True)
              (act): GELU()
              (linear2): Sequential(
                (0): Conv2d(2304, 768, kernel_size=(1, 1), stride=(1, 1))
              )
              (drop2): Dropout(p=0.0, inplace=True)
              (dwc): Conv2d(2304, 2304, kernel_size=(3, 3), stride=(1, 1), padding=(1, 1), groups=2304)
            )
          )
          (attn2): DeBiLevelRoutingAttention(
            (lepe1): Conv2d(768, 768, kernel_size=(5, 5), stride=(1, 1), padding=(2, 2), groups=768)
            (router): TopkRouting(
              (emb): Identity()
              (routing_act): Softmax(dim=-1)
            )
            (kv_gather): KVGather()
            (qkv_conv): QKVConv(
              (qkv): Conv2d(768, 2304, kernel_size=(1, 1), stride=(1, 1))
            )
            (kv_down): Identity()
            (attn_act): Softmax(dim=-1)
            (proj_q): Conv2d(768, 768, kernel_size=(1, 1), stride=(1, 1))
            (proj_k): Conv2d(768, 768, kernel_size=(1, 1), stride=(1, 1))
            (proj_v): Conv2d(768, 768, kernel_size=(1, 1), stride=(1, 1))
            (proj_out): Conv2d(768, 768, kernel_size=(1, 1), stride=(1, 1))
            (unifyheads1): Conv2d(768, 768, kernel_size=(1, 1), stride=(1, 1))
            (conv_offset_q): Sequential(
              (0): Conv2d(128, 128, kernel_size=(3, 3), stride=(1, 1), padding=(1, 1), groups=128, bias=False)
              (1): LayerNormProxy(
                (norm): LayerNorm((128,), eps=1e-05, elementwise_affine=True)
              )
              (2): GELU()
              (3): Conv2d(128, 1, kernel_size=(1, 1), stride=(1, 1), bias=False)
            )
            (norm): LayerNorm((768,), eps=1e-06, elementwise_affine=True)
            (norm2): LayerNorm((768,), eps=1e-06, elementwise_affine=True)
            (mlp): TransformerMLPWithConv(
              (linear1): Sequential(
                (0): Conv2d(768, 2304, kernel_size=(1, 1), stride=(1, 1))
              )
              (drop1): Dropout(p=0.0, inplace=True)
              (act): GELU()
              (linear2): Sequential(
                (0): Conv2d(2304, 768, kernel_size=(1, 1), stride=(1, 1))
              )
              (drop2): Dropout(p=0.0, inplace=True)
              (dwc): Conv2d(2304, 2304, kernel_size=(3, 3), stride=(1, 1), padding=(1, 1), groups=2304)
            )
          )
          (norm2): LayerNorm((768,), eps=1e-06, elementwise_affine=True)
          (mlp1): TransformerMLPWithConv(
            (linear1): Sequential(
              (0): Conv2d(768, 2304, kernel_size=(1, 1), stride=(1, 1))
            )
            (drop1): Dropout(p=0.0, inplace=True)
            (act): GELU()
            (linear2): Sequential(
              (0): Conv2d(2304, 768, kernel_size=(1, 1), stride=(1, 1))
            )
            (drop2): Dropout(p=0.0, inplace=True)
            (dwc): Conv2d(2304, 2304, kernel_size=(3, 3), stride=(1, 1), padding=(1, 1), groups=2304)
          )
          (drop_path1): DropPath()
          (drop_path2): DropPath()
          (norm3): LayerNorm((768,), eps=1e-06, elementwise_affine=True)
          (norm4): LayerNorm((768,), eps=1e-06, elementwise_affine=True)
          (mlp2): TransformerMLPWithConv(
            (linear1): Sequential(
              (0): Conv2d(768, 2304, kernel_size=(1, 1), stride=(1, 1))
            )
            (drop1): Dropout(p=0.0, inplace=True)
            (act): GELU()
            (linear2): Sequential(
              (0): Conv2d(2304, 768, kernel_size=(1, 1), stride=(1, 1))
            )
            (drop2): Dropout(p=0.0, inplace=True)
            (dwc): Conv2d(2304, 2304, kernel_size=(3, 3), stride=(1, 1), padding=(1, 1), groups=2304)
          )
        )
      )
    )
    (pre_logits): Identity()
    (extra_norms): ModuleList(
      (0): LayerNorm2d(
        (ln): LayerNorm((96,), eps=1e-05, elementwise_affine=True)
      )
      (1): LayerNorm2d(
        (ln): LayerNorm((192,), eps=1e-05, elementwise_affine=True)
      )
      (2): LayerNorm2d(
        (ln): LayerNorm((384,), eps=1e-05, elementwise_affine=True)
      )
      (3): LayerNorm2d(
        (ln): LayerNorm((768,), eps=1e-05, elementwise_affine=True)
      )
    )
  )
  (decode_head): UPerHead(
    input_transform=multiple_select, ignore_index=255, align_corners=False
    (loss_decode): CrossEntropyLoss(avg_non_ignore=False)
    (conv_seg): Conv2d(512, 150, kernel_size=(1, 1), stride=(1, 1))
    (dropout): Dropout2d(p=0.1, inplace=False)
    (psp_modules): PPM(
      (0): Sequential(
        (0): AdaptiveAvgPool2d(output_size=1)
        (1): ConvModule(
          (conv): Conv2d(768, 512, kernel_size=(1, 1), stride=(1, 1), bias=False)
          (bn): SyncBatchNorm(512, eps=1e-05, momentum=0.1, affine=True, track_running_stats=True)
          (activate): ReLU(inplace=True)
        )
      )
      (1): Sequential(
        (0): AdaptiveAvgPool2d(output_size=2)
        (1): ConvModule(
          (conv): Conv2d(768, 512, kernel_size=(1, 1), stride=(1, 1), bias=False)
          (bn): SyncBatchNorm(512, eps=1e-05, momentum=0.1, affine=True, track_running_stats=True)
          (activate): ReLU(inplace=True)
        )
      )
      (2): Sequential(
        (0): AdaptiveAvgPool2d(output_size=3)
        (1): ConvModule(
          (conv): Conv2d(768, 512, kernel_size=(1, 1), stride=(1, 1), bias=False)
          (bn): SyncBatchNorm(512, eps=1e-05, momentum=0.1, affine=True, track_running_stats=True)
          (activate): ReLU(inplace=True)
        )
      )
      (3): Sequential(
        (0): AdaptiveAvgPool2d(output_size=6)
        (1): ConvModule(
          (conv): Conv2d(768, 512, kernel_size=(1, 1), stride=(1, 1), bias=False)
          (bn): SyncBatchNorm(512, eps=1e-05, momentum=0.1, affine=True, track_running_stats=True)
          (activate): ReLU(inplace=True)
        )
      )
    )
    (bottleneck): ConvModule(
      (conv): Conv2d(2816, 512, kernel_size=(3, 3), stride=(1, 1), padding=(1, 1), bias=False)
      (bn): SyncBatchNorm(512, eps=1e-05, momentum=0.1, affine=True, track_running_stats=True)
      (activate): ReLU(inplace=True)
    )
    (lateral_convs): ModuleList(
      (0): ConvModule(
        (conv): Conv2d(96, 512, kernel_size=(1, 1), stride=(1, 1), bias=False)
        (bn): SyncBatchNorm(512, eps=1e-05, momentum=0.1, affine=True, track_running_stats=True)
        (activate): ReLU()
      )
      (1): ConvModule(
        (conv): Conv2d(192, 512, kernel_size=(1, 1), stride=(1, 1), bias=False)
        (bn): SyncBatchNorm(512, eps=1e-05, momentum=0.1, affine=True, track_running_stats=True)
        (activate): ReLU()
      )
      (2): ConvModule(
        (conv): Conv2d(384, 512, kernel_size=(1, 1), stride=(1, 1), bias=False)
        (bn): SyncBatchNorm(512, eps=1e-05, momentum=0.1, affine=True, track_running_stats=True)
        (activate): ReLU()
      )
    )
    (fpn_convs): ModuleList(
      (0): ConvModule(
        (conv): Conv2d(512, 512, kernel_size=(3, 3), stride=(1, 1), padding=(1, 1), bias=False)
        (bn): SyncBatchNorm(512, eps=1e-05, momentum=0.1, affine=True, track_running_stats=True)
        (activate): ReLU()
      )
      (1): ConvModule(
        (conv): Conv2d(512, 512, kernel_size=(3, 3), stride=(1, 1), padding=(1, 1), bias=False)
        (bn): SyncBatchNorm(512, eps=1e-05, momentum=0.1, affine=True, track_running_stats=True)
        (activate): ReLU()
      )
      (2): ConvModule(
        (conv): Conv2d(512, 512, kernel_size=(3, 3), stride=(1, 1), padding=(1, 1), bias=False)
        (bn): SyncBatchNorm(512, eps=1e-05, momentum=0.1, affine=True, track_running_stats=True)
        (activate): ReLU()
      )
    )
    (fpn_bottleneck): ConvModule(
      (conv): Conv2d(2048, 512, kernel_size=(3, 3), stride=(1, 1), padding=(1, 1), bias=False)
      (bn): SyncBatchNorm(512, eps=1e-05, momentum=0.1, affine=True, track_running_stats=True)
      (activate): ReLU(inplace=True)
    )
  )
  init_cfg={'type': 'Normal', 'std': 0.01, 'override': {'name': 'conv_seg'}}
  (auxiliary_head): FCNHead(
    input_transform=None, ignore_index=255, align_corners=False
    (loss_decode): CrossEntropyLoss(avg_non_ignore=False)
    (conv_seg): Conv2d(256, 150, kernel_size=(1, 1), stride=(1, 1))
    (dropout): Dropout2d(p=0.1, inplace=False)
    (convs): Sequential(
      (0): ConvModule(
        (conv): Conv2d(384, 256, kernel_size=(3, 3), stride=(1, 1), padding=(1, 1), bias=False)
        (bn): SyncBatchNorm(256, eps=1e-05, momentum=0.1, affine=True, track_running_stats=True)
        (activate): ReLU(inplace=True)
      )
    )
  )
  init_cfg={'type': 'Normal', 'std': 0.01, 'override': {'name': 'conv_seg'}}
)
2023-11-26 13:45:21,893 - mmseg - INFO - Loaded 20210 images
2023-11-26 13:45:23,625 - mmseg - INFO - Loaded 2000 images
…
